saved_model_schema_version: 1
meta_graphs {
  meta_info_def {
    stripped_op_list {
      op {
        name: "Add"
        input_arg {
          name: "x"
          type_attr: "T"
        }
        input_arg {
          name: "y"
          type_attr: "T"
        }
        output_arg {
          name: "z"
          type_attr: "T"
        }
        attr {
          name: "T"
          type: "type"
          allowed_values {
            list {
              type: DT_BFLOAT16
              type: DT_HALF
              type: DT_FLOAT
              type: DT_DOUBLE
              type: DT_UINT8
              type: DT_INT8
              type: DT_INT16
              type: DT_INT32
              type: DT_INT64
              type: DT_COMPLEX64
              type: DT_COMPLEX128
              type: DT_STRING
            }
          }
        }
      }
      op {
        name: "Assert"
        input_arg {
          name: "condition"
          type: DT_BOOL
        }
        input_arg {
          name: "data"
          type_list_attr: "T"
        }
        attr {
          name: "T"
          type: "list(type)"
          has_minimum: true
          minimum: 1
        }
        attr {
          name: "summarize"
          type: "int"
          default_value {
            i: 3
          }
        }
        is_stateful: true
      }
      op {
        name: "Assign"
        input_arg {
          name: "ref"
          type_attr: "T"
          is_ref: true
        }
        input_arg {
          name: "value"
          type_attr: "T"
        }
        output_arg {
          name: "output_ref"
          type_attr: "T"
          is_ref: true
        }
        attr {
          name: "T"
          type: "type"
        }
        attr {
          name: "validate_shape"
          type: "bool"
          default_value {
            b: true
          }
        }
        attr {
          name: "use_locking"
          type: "bool"
          default_value {
            b: true
          }
        }
        allows_uninitialized_input: true
      }
      op {
        name: "AvgPool"
        input_arg {
          name: "value"
          type_attr: "T"
        }
        output_arg {
          name: "output"
          type_attr: "T"
        }
        attr {
          name: "ksize"
          type: "list(int)"
          has_minimum: true
          minimum: 4
        }
        attr {
          name: "strides"
          type: "list(int)"
          has_minimum: true
          minimum: 4
        }
        attr {
          name: "padding"
          type: "string"
          allowed_values {
            list {
              s: "SAME"
              s: "VALID"
            }
          }
        }
        attr {
          name: "data_format"
          type: "string"
          default_value {
            s: "NHWC"
          }
          allowed_values {
            list {
              s: "NHWC"
              s: "NCHW"
            }
          }
        }
        attr {
          name: "T"
          type: "type"
          allowed_values {
            list {
              type: DT_HALF
              type: DT_BFLOAT16
              type: DT_FLOAT
              type: DT_DOUBLE
            }
          }
        }
      }
      op {
        name: "BatchToSpaceND"
        input_arg {
          name: "input"
          type_attr: "T"
        }
        input_arg {
          name: "block_shape"
          type_attr: "Tblock_shape"
        }
        input_arg {
          name: "crops"
          type_attr: "Tcrops"
        }
        output_arg {
          name: "output"
          type_attr: "T"
        }
        attr {
          name: "T"
          type: "type"
        }
        attr {
          name: "Tblock_shape"
          type: "type"
          default_value {
            type: DT_INT32
          }
          allowed_values {
            list {
              type: DT_INT32
              type: DT_INT64
            }
          }
        }
        attr {
          name: "Tcrops"
          type: "type"
          default_value {
            type: DT_INT32
          }
          allowed_values {
            list {
              type: DT_INT32
              type: DT_INT64
            }
          }
        }
      }
      op {
        name: "BiasAdd"
        input_arg {
          name: "value"
          type_attr: "T"
        }
        input_arg {
          name: "bias"
          type_attr: "T"
        }
        output_arg {
          name: "output"
          type_attr: "T"
        }
        attr {
          name: "T"
          type: "type"
          allowed_values {
            list {
              type: DT_FLOAT
              type: DT_DOUBLE
              type: DT_INT32
              type: DT_UINT8
              type: DT_INT16
              type: DT_INT8
              type: DT_COMPLEX64
              type: DT_INT64
              type: DT_QINT8
              type: DT_QUINT8
              type: DT_QINT32
              type: DT_BFLOAT16
              type: DT_UINT16
              type: DT_COMPLEX128
              type: DT_HALF
              type: DT_UINT32
              type: DT_UINT64
            }
          }
        }
        attr {
          name: "data_format"
          type: "string"
          default_value {
            s: "NHWC"
          }
          allowed_values {
            list {
              s: "NHWC"
              s: "NCHW"
            }
          }
        }
      }
      op {
        name: "Cast"
        input_arg {
          name: "x"
          type_attr: "SrcT"
        }
        output_arg {
          name: "y"
          type_attr: "DstT"
        }
        attr {
          name: "SrcT"
          type: "type"
        }
        attr {
          name: "DstT"
          type: "type"
        }
        attr {
          name: "Truncate"
          type: "bool"
          default_value {
            b: false
          }
        }
      }
      op {
        name: "ConcatV2"
        input_arg {
          name: "values"
          type_attr: "T"
          number_attr: "N"
        }
        input_arg {
          name: "axis"
          type_attr: "Tidx"
        }
        output_arg {
          name: "output"
          type_attr: "T"
        }
        attr {
          name: "N"
          type: "int"
          has_minimum: true
          minimum: 2
        }
        attr {
          name: "T"
          type: "type"
        }
        attr {
          name: "Tidx"
          type: "type"
          default_value {
            type: DT_INT32
          }
          allowed_values {
            list {
              type: DT_INT32
              type: DT_INT64
            }
          }
        }
      }
      op {
        name: "Const"
        output_arg {
          name: "output"
          type_attr: "dtype"
        }
        attr {
          name: "value"
          type: "tensor"
        }
        attr {
          name: "dtype"
          type: "type"
        }
      }
      op {
        name: "Conv2D"
        input_arg {
          name: "input"
          type_attr: "T"
        }
        input_arg {
          name: "filter"
          type_attr: "T"
        }
        output_arg {
          name: "output"
          type_attr: "T"
        }
        attr {
          name: "T"
          type: "type"
          allowed_values {
            list {
              type: DT_HALF
              type: DT_BFLOAT16
              type: DT_FLOAT
              type: DT_DOUBLE
            }
          }
        }
        attr {
          name: "strides"
          type: "list(int)"
        }
        attr {
          name: "use_cudnn_on_gpu"
          type: "bool"
          default_value {
            b: true
          }
        }
        attr {
          name: "padding"
          type: "string"
          allowed_values {
            list {
              s: "SAME"
              s: "VALID"
              s: "EXPLICIT"
            }
          }
        }
        attr {
          name: "explicit_paddings"
          type: "list(int)"
          default_value {
            list {
            }
          }
        }
        attr {
          name: "data_format"
          type: "string"
          default_value {
            s: "NHWC"
          }
          allowed_values {
            list {
              s: "NHWC"
              s: "NCHW"
            }
          }
        }
        attr {
          name: "dilations"
          type: "list(int)"
          default_value {
            list {
              i: 1
              i: 1
              i: 1
              i: 1
            }
          }
        }
      }
      op {
        name: "DepthwiseConv2dNative"
        input_arg {
          name: "input"
          type_attr: "T"
        }
        input_arg {
          name: "filter"
          type_attr: "T"
        }
        output_arg {
          name: "output"
          type_attr: "T"
        }
        attr {
          name: "T"
          type: "type"
          allowed_values {
            list {
              type: DT_HALF
              type: DT_BFLOAT16
              type: DT_FLOAT
              type: DT_DOUBLE
            }
          }
        }
        attr {
          name: "strides"
          type: "list(int)"
        }
        attr {
          name: "padding"
          type: "string"
          allowed_values {
            list {
              s: "SAME"
              s: "VALID"
            }
          }
        }
        attr {
          name: "data_format"
          type: "string"
          default_value {
            s: "NHWC"
          }
          allowed_values {
            list {
              s: "NHWC"
              s: "NCHW"
            }
          }
        }
        attr {
          name: "dilations"
          type: "list(int)"
          default_value {
            list {
              i: 1
              i: 1
              i: 1
              i: 1
            }
          }
        }
      }
      op {
        name: "Equal"
        input_arg {
          name: "x"
          type_attr: "T"
        }
        input_arg {
          name: "y"
          type_attr: "T"
        }
        output_arg {
          name: "z"
          type: DT_BOOL
        }
        attr {
          name: "T"
          type: "type"
          allowed_values {
            list {
              type: DT_BFLOAT16
              type: DT_HALF
              type: DT_FLOAT
              type: DT_DOUBLE
              type: DT_UINT8
              type: DT_INT8
              type: DT_INT16
              type: DT_INT32
              type: DT_INT64
              type: DT_COMPLEX64
              type: DT_QUINT8
              type: DT_QINT8
              type: DT_QINT32
              type: DT_STRING
              type: DT_BOOL
              type: DT_COMPLEX128
            }
          }
        }
        is_commutative: true
      }
      op {
        name: "ExpandDims"
        input_arg {
          name: "input"
          type_attr: "T"
        }
        input_arg {
          name: "dim"
          type_attr: "Tdim"
        }
        output_arg {
          name: "output"
          type_attr: "T"
        }
        attr {
          name: "T"
          type: "type"
        }
        attr {
          name: "Tdim"
          type: "type"
          default_value {
            type: DT_INT32
          }
          allowed_values {
            list {
              type: DT_INT32
              type: DT_INT64
            }
          }
        }
      }
      op {
        name: "FusedBatchNorm"
        input_arg {
          name: "x"
          type_attr: "T"
        }
        input_arg {
          name: "scale"
          type_attr: "T"
        }
        input_arg {
          name: "offset"
          type_attr: "T"
        }
        input_arg {
          name: "mean"
          type_attr: "T"
        }
        input_arg {
          name: "variance"
          type_attr: "T"
        }
        output_arg {
          name: "y"
          type_attr: "T"
        }
        output_arg {
          name: "batch_mean"
          type_attr: "T"
        }
        output_arg {
          name: "batch_variance"
          type_attr: "T"
        }
        output_arg {
          name: "reserve_space_1"
          type_attr: "T"
        }
        output_arg {
          name: "reserve_space_2"
          type_attr: "T"
        }
        attr {
          name: "T"
          type: "type"
          allowed_values {
            list {
              type: DT_FLOAT
            }
          }
        }
        attr {
          name: "epsilon"
          type: "float"
          default_value {
            f: 9.999999747378752e-05
          }
        }
        attr {
          name: "data_format"
          type: "string"
          default_value {
            s: "NHWC"
          }
          allowed_values {
            list {
              s: "NHWC"
              s: "NCHW"
            }
          }
        }
        attr {
          name: "is_training"
          type: "bool"
          default_value {
            b: true
          }
        }
      }
      op {
        name: "GreaterEqual"
        input_arg {
          name: "x"
          type_attr: "T"
        }
        input_arg {
          name: "y"
          type_attr: "T"
        }
        output_arg {
          name: "z"
          type: DT_BOOL
        }
        attr {
          name: "T"
          type: "type"
          allowed_values {
            list {
              type: DT_FLOAT
              type: DT_DOUBLE
              type: DT_INT32
              type: DT_UINT8
              type: DT_INT16
              type: DT_INT8
              type: DT_INT64
              type: DT_BFLOAT16
              type: DT_UINT16
              type: DT_HALF
              type: DT_UINT32
              type: DT_UINT64
            }
          }
        }
      }
      op {
        name: "Identity"
        input_arg {
          name: "input"
          type_attr: "T"
        }
        output_arg {
          name: "output"
          type_attr: "T"
        }
        attr {
          name: "T"
          type: "type"
        }
      }
      op {
        name: "L2Loss"
        input_arg {
          name: "t"
          type_attr: "T"
        }
        output_arg {
          name: "output"
          type_attr: "T"
        }
        attr {
          name: "T"
          type: "type"
          allowed_values {
            list {
              type: DT_HALF
              type: DT_BFLOAT16
              type: DT_FLOAT
              type: DT_DOUBLE
            }
          }
        }
      }
      op {
        name: "LogicalAnd"
        input_arg {
          name: "x"
          type: DT_BOOL
        }
        input_arg {
          name: "y"
          type: DT_BOOL
        }
        output_arg {
          name: "z"
          type: DT_BOOL
        }
        is_commutative: true
      }
      op {
        name: "LogicalOr"
        input_arg {
          name: "x"
          type: DT_BOOL
        }
        input_arg {
          name: "y"
          type: DT_BOOL
        }
        output_arg {
          name: "z"
          type: DT_BOOL
        }
        is_commutative: true
      }
      op {
        name: "Maximum"
        input_arg {
          name: "x"
          type_attr: "T"
        }
        input_arg {
          name: "y"
          type_attr: "T"
        }
        output_arg {
          name: "z"
          type_attr: "T"
        }
        attr {
          name: "T"
          type: "type"
          allowed_values {
            list {
              type: DT_BFLOAT16
              type: DT_HALF
              type: DT_FLOAT
              type: DT_DOUBLE
              type: DT_INT32
              type: DT_INT64
            }
          }
        }
      }
      op {
        name: "MergeV2Checkpoints"
        input_arg {
          name: "checkpoint_prefixes"
          type: DT_STRING
        }
        input_arg {
          name: "destination_prefix"
          type: DT_STRING
        }
        attr {
          name: "delete_old_dirs"
          type: "bool"
          default_value {
            b: true
          }
        }
        is_stateful: true
      }
      op {
        name: "Minimum"
        input_arg {
          name: "x"
          type_attr: "T"
        }
        input_arg {
          name: "y"
          type_attr: "T"
        }
        output_arg {
          name: "z"
          type_attr: "T"
        }
        attr {
          name: "T"
          type: "type"
          allowed_values {
            list {
              type: DT_BFLOAT16
              type: DT_HALF
              type: DT_FLOAT
              type: DT_DOUBLE
              type: DT_INT32
              type: DT_INT64
            }
          }
        }
      }
      op {
        name: "Mul"
        input_arg {
          name: "x"
          type_attr: "T"
        }
        input_arg {
          name: "y"
          type_attr: "T"
        }
        output_arg {
          name: "z"
          type_attr: "T"
        }
        attr {
          name: "T"
          type: "type"
          allowed_values {
            list {
              type: DT_BFLOAT16
              type: DT_HALF
              type: DT_FLOAT
              type: DT_DOUBLE
              type: DT_UINT8
              type: DT_INT8
              type: DT_UINT16
              type: DT_INT16
              type: DT_INT32
              type: DT_INT64
              type: DT_COMPLEX64
              type: DT_COMPLEX128
            }
          }
        }
        is_commutative: true
      }
      op {
        name: "NoOp"
      }
      op {
        name: "Pack"
        input_arg {
          name: "values"
          type_attr: "T"
          number_attr: "N"
        }
        output_arg {
          name: "output"
          type_attr: "T"
        }
        attr {
          name: "N"
          type: "int"
          has_minimum: true
          minimum: 1
        }
        attr {
          name: "T"
          type: "type"
        }
        attr {
          name: "axis"
          type: "int"
          default_value {
            i: 0
          }
        }
      }
      op {
        name: "Pad"
        input_arg {
          name: "input"
          type_attr: "T"
        }
        input_arg {
          name: "paddings"
          type_attr: "Tpaddings"
        }
        output_arg {
          name: "output"
          type_attr: "T"
        }
        attr {
          name: "T"
          type: "type"
        }
        attr {
          name: "Tpaddings"
          type: "type"
          default_value {
            type: DT_INT32
          }
          allowed_values {
            list {
              type: DT_INT32
              type: DT_INT64
            }
          }
        }
      }
      op {
        name: "Placeholder"
        output_arg {
          name: "output"
          type_attr: "dtype"
        }
        attr {
          name: "dtype"
          type: "type"
        }
        attr {
          name: "shape"
          type: "shape"
          default_value {
            shape {
              unknown_rank: true
            }
          }
        }
      }
      op {
        name: "PlaceholderWithDefault"
        input_arg {
          name: "input"
          type_attr: "dtype"
        }
        output_arg {
          name: "output"
          type_attr: "dtype"
        }
        attr {
          name: "dtype"
          type: "type"
        }
        attr {
          name: "shape"
          type: "shape"
        }
      }
      op {
        name: "RandomUniform"
        input_arg {
          name: "shape"
          type_attr: "T"
        }
        output_arg {
          name: "output"
          type_attr: "dtype"
        }
        attr {
          name: "seed"
          type: "int"
          default_value {
            i: 0
          }
        }
        attr {
          name: "seed2"
          type: "int"
          default_value {
            i: 0
          }
        }
        attr {
          name: "dtype"
          type: "type"
          allowed_values {
            list {
              type: DT_HALF
              type: DT_BFLOAT16
              type: DT_FLOAT
              type: DT_DOUBLE
            }
          }
        }
        attr {
          name: "T"
          type: "type"
          allowed_values {
            list {
              type: DT_INT32
              type: DT_INT64
            }
          }
        }
        is_stateful: true
      }
      op {
        name: "Relu"
        input_arg {
          name: "features"
          type_attr: "T"
        }
        output_arg {
          name: "activations"
          type_attr: "T"
        }
        attr {
          name: "T"
          type: "type"
          allowed_values {
            list {
              type: DT_FLOAT
              type: DT_DOUBLE
              type: DT_INT32
              type: DT_UINT8
              type: DT_INT16
              type: DT_INT8
              type: DT_INT64
              type: DT_BFLOAT16
              type: DT_UINT16
              type: DT_HALF
              type: DT_UINT32
              type: DT_UINT64
              type: DT_QINT8
            }
          }
        }
      }
      op {
        name: "Relu6"
        input_arg {
          name: "features"
          type_attr: "T"
        }
        output_arg {
          name: "activations"
          type_attr: "T"
        }
        attr {
          name: "T"
          type: "type"
          allowed_values {
            list {
              type: DT_FLOAT
              type: DT_DOUBLE
              type: DT_INT32
              type: DT_UINT8
              type: DT_INT16
              type: DT_INT8
              type: DT_INT64
              type: DT_BFLOAT16
              type: DT_UINT16
              type: DT_HALF
              type: DT_UINT32
              type: DT_UINT64
            }
          }
        }
      }
      op {
        name: "Reshape"
        input_arg {
          name: "tensor"
          type_attr: "T"
        }
        input_arg {
          name: "shape"
          type_attr: "Tshape"
        }
        output_arg {
          name: "output"
          type_attr: "T"
        }
        attr {
          name: "T"
          type: "type"
        }
        attr {
          name: "Tshape"
          type: "type"
          default_value {
            type: DT_INT32
          }
          allowed_values {
            list {
              type: DT_INT32
              type: DT_INT64
            }
          }
        }
      }
      op {
        name: "ResizeBilinear"
        input_arg {
          name: "images"
          type_attr: "T"
        }
        input_arg {
          name: "size"
          type: DT_INT32
        }
        output_arg {
          name: "resized_images"
          type: DT_FLOAT
        }
        attr {
          name: "T"
          type: "type"
          allowed_values {
            list {
              type: DT_INT8
              type: DT_UINT8
              type: DT_INT16
              type: DT_UINT16
              type: DT_INT32
              type: DT_INT64
              type: DT_BFLOAT16
              type: DT_HALF
              type: DT_FLOAT
              type: DT_DOUBLE
            }
          }
        }
        attr {
          name: "align_corners"
          type: "bool"
          default_value {
            b: false
          }
        }
        attr {
          name: "half_pixel_centers"
          type: "bool"
          default_value {
            b: false
          }
        }
      }
      op {
        name: "RestoreV2"
        input_arg {
          name: "prefix"
          type: DT_STRING
        }
        input_arg {
          name: "tensor_names"
          type: DT_STRING
        }
        input_arg {
          name: "shape_and_slices"
          type: DT_STRING
        }
        output_arg {
          name: "tensors"
          type_list_attr: "dtypes"
        }
        attr {
          name: "dtypes"
          type: "list(type)"
          has_minimum: true
          minimum: 1
        }
        is_stateful: true
      }
      op {
        name: "SaveV2"
        input_arg {
          name: "prefix"
          type: DT_STRING
        }
        input_arg {
          name: "tensor_names"
          type: DT_STRING
        }
        input_arg {
          name: "shape_and_slices"
          type: DT_STRING
        }
        input_arg {
          name: "tensors"
          type_list_attr: "dtypes"
        }
        attr {
          name: "dtypes"
          type: "list(type)"
          has_minimum: true
          minimum: 1
        }
        is_stateful: true
      }
      op {
        name: "Shape"
        input_arg {
          name: "input"
          type_attr: "T"
        }
        output_arg {
          name: "output"
          type_attr: "out_type"
        }
        attr {
          name: "T"
          type: "type"
        }
        attr {
          name: "out_type"
          type: "type"
          default_value {
            type: DT_INT32
          }
          allowed_values {
            list {
              type: DT_INT32
              type: DT_INT64
            }
          }
        }
      }
      op {
        name: "ShardedFilename"
        input_arg {
          name: "basename"
          type: DT_STRING
        }
        input_arg {
          name: "shard"
          type: DT_INT32
        }
        input_arg {
          name: "num_shards"
          type: DT_INT32
        }
        output_arg {
          name: "filename"
          type: DT_STRING
        }
      }
      op {
        name: "Slice"
        input_arg {
          name: "input"
          type_attr: "T"
        }
        input_arg {
          name: "begin"
          type_attr: "Index"
        }
        input_arg {
          name: "size"
          type_attr: "Index"
        }
        output_arg {
          name: "output"
          type_attr: "T"
        }
        attr {
          name: "T"
          type: "type"
        }
        attr {
          name: "Index"
          type: "type"
          allowed_values {
            list {
              type: DT_INT32
              type: DT_INT64
            }
          }
        }
      }
      op {
        name: "SpaceToBatchND"
        input_arg {
          name: "input"
          type_attr: "T"
        }
        input_arg {
          name: "block_shape"
          type_attr: "Tblock_shape"
        }
        input_arg {
          name: "paddings"
          type_attr: "Tpaddings"
        }
        output_arg {
          name: "output"
          type_attr: "T"
        }
        attr {
          name: "T"
          type: "type"
        }
        attr {
          name: "Tblock_shape"
          type: "type"
          default_value {
            type: DT_INT32
          }
          allowed_values {
            list {
              type: DT_INT32
              type: DT_INT64
            }
          }
        }
        attr {
          name: "Tpaddings"
          type: "type"
          default_value {
            type: DT_INT32
          }
          allowed_values {
            list {
              type: DT_INT32
              type: DT_INT64
            }
          }
        }
      }
      op {
        name: "SplitV"
        input_arg {
          name: "value"
          type_attr: "T"
        }
        input_arg {
          name: "size_splits"
          type_attr: "Tlen"
        }
        input_arg {
          name: "split_dim"
          type: DT_INT32
        }
        output_arg {
          name: "output"
          type_attr: "T"
          number_attr: "num_split"
        }
        attr {
          name: "num_split"
          type: "int"
          has_minimum: true
          minimum: 1
        }
        attr {
          name: "T"
          type: "type"
        }
        attr {
          name: "Tlen"
          type: "type"
          default_value {
            type: DT_INT64
          }
          allowed_values {
            list {
              type: DT_INT32
              type: DT_INT64
            }
          }
        }
      }
      op {
        name: "Squeeze"
        input_arg {
          name: "input"
          type_attr: "T"
        }
        output_arg {
          name: "output"
          type_attr: "T"
        }
        attr {
          name: "T"
          type: "type"
        }
        attr {
          name: "squeeze_dims"
          type: "list(int)"
          default_value {
            list {
            }
          }
          has_minimum: true
        }
      }
      op {
        name: "StridedSlice"
        input_arg {
          name: "input"
          type_attr: "T"
        }
        input_arg {
          name: "begin"
          type_attr: "Index"
        }
        input_arg {
          name: "end"
          type_attr: "Index"
        }
        input_arg {
          name: "strides"
          type_attr: "Index"
        }
        output_arg {
          name: "output"
          type_attr: "T"
        }
        attr {
          name: "T"
          type: "type"
        }
        attr {
          name: "Index"
          type: "type"
          allowed_values {
            list {
              type: DT_INT32
              type: DT_INT64
            }
          }
        }
        attr {
          name: "begin_mask"
          type: "int"
          default_value {
            i: 0
          }
        }
        attr {
          name: "end_mask"
          type: "int"
          default_value {
            i: 0
          }
        }
        attr {
          name: "ellipsis_mask"
          type: "int"
          default_value {
            i: 0
          }
        }
        attr {
          name: "new_axis_mask"
          type: "int"
          default_value {
            i: 0
          }
        }
        attr {
          name: "shrink_axis_mask"
          type: "int"
          default_value {
            i: 0
          }
        }
      }
      op {
        name: "StringJoin"
        input_arg {
          name: "inputs"
          type: DT_STRING
          number_attr: "N"
        }
        output_arg {
          name: "output"
          type: DT_STRING
        }
        attr {
          name: "N"
          type: "int"
          has_minimum: true
          minimum: 1
        }
        attr {
          name: "separator"
          type: "string"
          default_value {
            s: ""
          }
        }
      }
      op {
        name: "Sub"
        input_arg {
          name: "x"
          type_attr: "T"
        }
        input_arg {
          name: "y"
          type_attr: "T"
        }
        output_arg {
          name: "z"
          type_attr: "T"
        }
        attr {
          name: "T"
          type: "type"
          allowed_values {
            list {
              type: DT_BFLOAT16
              type: DT_HALF
              type: DT_FLOAT
              type: DT_DOUBLE
              type: DT_UINT8
              type: DT_INT8
              type: DT_UINT16
              type: DT_INT16
              type: DT_INT32
              type: DT_INT64
              type: DT_COMPLEX64
              type: DT_COMPLEX128
            }
          }
        }
      }
      op {
        name: "TruncatedNormal"
        input_arg {
          name: "shape"
          type_attr: "T"
        }
        output_arg {
          name: "output"
          type_attr: "dtype"
        }
        attr {
          name: "seed"
          type: "int"
          default_value {
            i: 0
          }
        }
        attr {
          name: "seed2"
          type: "int"
          default_value {
            i: 0
          }
        }
        attr {
          name: "dtype"
          type: "type"
          allowed_values {
            list {
              type: DT_HALF
              type: DT_BFLOAT16
              type: DT_FLOAT
              type: DT_DOUBLE
            }
          }
        }
        attr {
          name: "T"
          type: "type"
          allowed_values {
            list {
              type: DT_INT32
              type: DT_INT64
            }
          }
        }
        is_stateful: true
      }
      op {
        name: "Unpack"
        input_arg {
          name: "value"
          type_attr: "T"
        }
        output_arg {
          name: "output"
          type_attr: "T"
          number_attr: "num"
        }
        attr {
          name: "num"
          type: "int"
          has_minimum: true
        }
        attr {
          name: "T"
          type: "type"
        }
        attr {
          name: "axis"
          type: "int"
          default_value {
            i: 0
          }
        }
      }
      op {
        name: "VariableV2"
        output_arg {
          name: "ref"
          type_attr: "dtype"
          is_ref: true
        }
        attr {
          name: "shape"
          type: "shape"
        }
        attr {
          name: "dtype"
          type: "type"
        }
        attr {
          name: "container"
          type: "string"
          default_value {
            s: ""
          }
        }
        attr {
          name: "shared_name"
          type: "string"
          default_value {
            s: ""
          }
        }
        is_stateful: true
      }
    }
    tags: "serve"
    tensorflow_version: "1.14.0"
    tensorflow_git_version: "v1.14.0-rc1-22-gaf24dc91b5"
  }
  graph_def {
    node {
      name: "imgnum"
      op: "Placeholder"
      attr {
        key: "_output_shapes"
        value {
          list {
            shape {
            }
          }
        }
      }
      attr {
        key: "dtype"
        value {
          type: DT_INT32
        }
      }
      attr {
        key: "shape"
        value {
          shape {
          }
        }
      }
    }
    node {
      name: "height"
      op: "Placeholder"
      attr {
        key: "_output_shapes"
        value {
          list {
            shape {
              dim {
                size: 8
              }
            }
          }
        }
      }
      attr {
        key: "dtype"
        value {
          type: DT_INT32
        }
      }
      attr {
        key: "shape"
        value {
          shape {
            dim {
              size: 8
            }
          }
        }
      }
    }
    node {
      name: "width"
      op: "Placeholder"
      attr {
        key: "_output_shapes"
        value {
          list {
            shape {
              dim {
                size: 8
              }
            }
          }
        }
      }
      attr {
        key: "dtype"
        value {
          type: DT_INT32
        }
      }
      attr {
        key: "shape"
        value {
          shape {
            dim {
              size: 8
            }
          }
        }
      }
    }
    node {
      name: "images_input"
      op: "Placeholder"
      attr {
        key: "_output_shapes"
        value {
          list {
            shape {
              dim {
                size: -1
              }
            }
          }
        }
      }
      attr {
        key: "dtype"
        value {
          type: DT_UINT8
        }
      }
      attr {
        key: "shape"
        value {
          shape {
            dim {
              size: -1
            }
          }
        }
      }
    }
    node {
      name: "Mul"
      op: "Mul"
      input: "height"
      input: "width"
      attr {
        key: "T"
        value {
          type: DT_INT32
        }
      }
      attr {
        key: "_output_shapes"
        value {
          list {
            shape {
              dim {
                size: 8
              }
            }
          }
        }
      }
    }
    node {
      name: "scalar"
      op: "Const"
      attr {
        key: "_output_shapes"
        value {
          list {
            shape {
            }
          }
        }
      }
      attr {
        key: "dtype"
        value {
          type: DT_INT32
        }
      }
      attr {
        key: "value"
        value {
          tensor {
            dtype: DT_INT32
            tensor_shape {
            }
            int_val: 3
          }
        }
      }
    }
    node {
      name: "Mul_1"
      op: "Mul"
      input: "scalar"
      input: "Mul"
      attr {
        key: "T"
        value {
          type: DT_INT32
        }
      }
      attr {
        key: "_output_shapes"
        value {
          list {
            shape {
              dim {
                size: 8
              }
            }
          }
        }
      }
    }
    node {
      name: "x"
      op: "Identity"
      input: "images_input"
      attr {
        key: "T"
        value {
          type: DT_UINT8
        }
      }
      attr {
        key: "_output_shapes"
        value {
          list {
            shape {
              dim {
                size: -1
              }
            }
          }
        }
      }
    }
    node {
      name: "Cast"
      op: "Cast"
      input: "images_input"
      attr {
        key: "DstT"
        value {
          type: DT_FLOAT
        }
      }
      attr {
        key: "SrcT"
        value {
          type: DT_UINT8
        }
      }
      attr {
        key: "Truncate"
        value {
          b: false
        }
      }
      attr {
        key: "_output_shapes"
        value {
          list {
            shape {
              dim {
                size: -1
              }
            }
          }
        }
      }
    }
    node {
      name: "split/split_dim"
      op: "Const"
      attr {
        key: "_output_shapes"
        value {
          list {
            shape {
            }
          }
        }
      }
      attr {
        key: "dtype"
        value {
          type: DT_INT32
        }
      }
      attr {
        key: "value"
        value {
          tensor {
            dtype: DT_INT32
            tensor_shape {
            }
            int_val: 0
          }
        }
      }
    }
    node {
      name: "split"
      op: "SplitV"
      input: "x"
      input: "Mul_1"
      input: "split/split_dim"
      attr {
        key: "T"
        value {
          type: DT_UINT8
        }
      }
      attr {
        key: "Tlen"
        value {
          type: DT_INT32
        }
      }
      attr {
        key: "_output_shapes"
        value {
          list {
            shape {
              dim {
                size: -1
              }
            }
            shape {
              dim {
                size: -1
              }
            }
            shape {
              dim {
                size: -1
              }
            }
            shape {
              dim {
                size: -1
              }
            }
            shape {
              dim {
                size: -1
              }
            }
            shape {
              dim {
                size: -1
              }
            }
            shape {
              dim {
                size: -1
              }
            }
            shape {
              dim {
                size: -1
              }
            }
          }
        }
      }
      attr {
        key: "num_split"
        value {
          i: 8
        }
      }
    }
    node {
      name: "strided_slice/stack"
      op: "Const"
      attr {
        key: "_output_shapes"
        value {
          list {
            shape {
              dim {
                size: 1
              }
            }
          }
        }
      }
      attr {
        key: "dtype"
        value {
          type: DT_INT32
        }
      }
      attr {
        key: "value"
        value {
          tensor {
            dtype: DT_INT32
            tensor_shape {
              dim {
                size: 1
              }
            }
            int_val: 0
          }
        }
      }
    }
    node {
      name: "strided_slice/stack_1"
      op: "Const"
      attr {
        key: "_output_shapes"
        value {
          list {
            shape {
              dim {
                size: 1
              }
            }
          }
        }
      }
      attr {
        key: "dtype"
        value {
          type: DT_INT32
        }
      }
      attr {
        key: "value"
        value {
          tensor {
            dtype: DT_INT32
            tensor_shape {
              dim {
                size: 1
              }
            }
            int_val: 1
          }
        }
      }
    }
    node {
      name: "strided_slice/stack_2"
      op: "Const"
      attr {
        key: "_output_shapes"
        value {
          list {
            shape {
              dim {
                size: 1
              }
            }
          }
        }
      }
      attr {
        key: "dtype"
        value {
          type: DT_INT32
        }
      }
      attr {
        key: "value"
        value {
          tensor {
            dtype: DT_INT32
            tensor_shape {
              dim {
                size: 1
              }
            }
            int_val: 1
          }
        }
      }
    }
    node {
      name: "strided_slice"
      op: "StridedSlice"
      input: "height"
      input: "strided_slice/stack"
      input: "strided_slice/stack_1"
      input: "strided_slice/stack_2"
      attr {
        key: "Index"
        value {
          type: DT_INT32
        }
      }
      attr {
        key: "T"
        value {
          type: DT_INT32
        }
      }
      attr {
        key: "_output_shapes"
        value {
          list {
            shape {
            }
          }
        }
      }
      attr {
        key: "begin_mask"
        value {
          i: 0
        }
      }
      attr {
        key: "ellipsis_mask"
        value {
          i: 0
        }
      }
      attr {
        key: "end_mask"
        value {
          i: 0
        }
      }
      attr {
        key: "new_axis_mask"
        value {
          i: 0
        }
      }
      attr {
        key: "shrink_axis_mask"
        value {
          i: 1
        }
      }
    }
    node {
      name: "strided_slice_1/stack"
      op: "Const"
      attr {
        key: "_output_shapes"
        value {
          list {
            shape {
              dim {
                size: 1
              }
            }
          }
        }
      }
      attr {
        key: "dtype"
        value {
          type: DT_INT32
        }
      }
      attr {
        key: "value"
        value {
          tensor {
            dtype: DT_INT32
            tensor_shape {
              dim {
                size: 1
              }
            }
            int_val: 0
          }
        }
      }
    }
    node {
      name: "strided_slice_1/stack_1"
      op: "Const"
      attr {
        key: "_output_shapes"
        value {
          list {
            shape {
              dim {
                size: 1
              }
            }
          }
        }
      }
      attr {
        key: "dtype"
        value {
          type: DT_INT32
        }
      }
      attr {
        key: "value"
        value {
          tensor {
            dtype: DT_INT32
            tensor_shape {
              dim {
                size: 1
              }
            }
            int_val: 1
          }
        }
      }
    }
    node {
      name: "strided_slice_1/stack_2"
      op: "Const"
      attr {
        key: "_output_shapes"
        value {
          list {
            shape {
              dim {
                size: 1
              }
            }
          }
        }
      }
      attr {
        key: "dtype"
        value {
          type: DT_INT32
        }
      }
      attr {
        key: "value"
        value {
          tensor {
            dtype: DT_INT32
            tensor_shape {
              dim {
                size: 1
              }
            }
            int_val: 1
          }
        }
      }
    }
    node {
      name: "strided_slice_1"
      op: "StridedSlice"
      input: "width"
      input: "strided_slice_1/stack"
      input: "strided_slice_1/stack_1"
      input: "strided_slice_1/stack_2"
      attr {
        key: "Index"
        value {
          type: DT_INT32
        }
      }
      attr {
        key: "T"
        value {
          type: DT_INT32
        }
      }
      attr {
        key: "_output_shapes"
        value {
          list {
            shape {
            }
          }
        }
      }
      attr {
        key: "begin_mask"
        value {
          i: 0
        }
      }
      attr {
        key: "ellipsis_mask"
        value {
          i: 0
        }
      }
      attr {
        key: "end_mask"
        value {
          i: 0
        }
      }
      attr {
        key: "new_axis_mask"
        value {
          i: 0
        }
      }
      attr {
        key: "shrink_axis_mask"
        value {
          i: 1
        }
      }
    }
    node {
      name: "Reshape/shape/2"
      op: "Const"
      attr {
        key: "_output_shapes"
        value {
          list {
            shape {
            }
          }
        }
      }
      attr {
        key: "dtype"
        value {
          type: DT_INT32
        }
      }
      attr {
        key: "value"
        value {
          tensor {
            dtype: DT_INT32
            tensor_shape {
            }
            int_val: 3
          }
        }
      }
    }
    node {
      name: "Reshape/shape"
      op: "Pack"
      input: "strided_slice"
      input: "strided_slice_1"
      input: "Reshape/shape/2"
      attr {
        key: "N"
        value {
          i: 3
        }
      }
      attr {
        key: "T"
        value {
          type: DT_INT32
        }
      }
      attr {
        key: "_output_shapes"
        value {
          list {
            shape {
              dim {
                size: 3
              }
            }
          }
        }
      }
      attr {
        key: "axis"
        value {
          i: 0
        }
      }
    }
    node {
      name: "Reshape"
      op: "Reshape"
      input: "split"
      input: "Reshape/shape"
      attr {
        key: "T"
        value {
          type: DT_UINT8
        }
      }
      attr {
        key: "Tshape"
        value {
          type: DT_INT32
        }
      }
      attr {
        key: "_output_shapes"
        value {
          list {
            shape {
              dim {
                size: -1
              }
              dim {
                size: -1
              }
              dim {
                size: 3
              }
            }
          }
        }
      }
    }
    node {
      name: "Cast_1"
      op: "Cast"
      input: "Reshape"
      attr {
        key: "DstT"
        value {
          type: DT_FLOAT
        }
      }
      attr {
        key: "SrcT"
        value {
          type: DT_UINT8
        }
      }
      attr {
        key: "Truncate"
        value {
          b: false
        }
      }
      attr {
        key: "_output_shapes"
        value {
          list {
            shape {
              dim {
                size: -1
              }
              dim {
                size: -1
              }
              dim {
                size: 3
              }
            }
          }
        }
      }
    }
    node {
      name: "Shape"
      op: "Shape"
      input: "Cast_1"
      attr {
        key: "T"
        value {
          type: DT_FLOAT
        }
      }
      attr {
        key: "_output_shapes"
        value {
          list {
            shape {
              dim {
                size: 3
              }
            }
          }
        }
      }
      attr {
        key: "out_type"
        value {
          type: DT_INT32
        }
      }
    }
    node {
      name: "strided_slice_2/stack"
      op: "Const"
      attr {
        key: "_output_shapes"
        value {
          list {
            shape {
              dim {
                size: 1
              }
            }
          }
        }
      }
      attr {
        key: "dtype"
        value {
          type: DT_INT32
        }
      }
      attr {
        key: "value"
        value {
          tensor {
            dtype: DT_INT32
            tensor_shape {
              dim {
                size: 1
              }
            }
            int_val: 0
          }
        }
      }
    }
    node {
      name: "strided_slice_2/stack_1"
      op: "Const"
      attr {
        key: "_output_shapes"
        value {
          list {
            shape {
              dim {
                size: 1
              }
            }
          }
        }
      }
      attr {
        key: "dtype"
        value {
          type: DT_INT32
        }
      }
      attr {
        key: "value"
        value {
          tensor {
            dtype: DT_INT32
            tensor_shape {
              dim {
                size: 1
              }
            }
            int_val: 1
          }
        }
      }
    }
    node {
      name: "strided_slice_2/stack_2"
      op: "Const"
      attr {
        key: "_output_shapes"
        value {
          list {
            shape {
              dim {
                size: 1
              }
            }
          }
        }
      }
      attr {
        key: "dtype"
        value {
          type: DT_INT32
        }
      }
      attr {
        key: "value"
        value {
          tensor {
            dtype: DT_INT32
            tensor_shape {
              dim {
                size: 1
              }
            }
            int_val: 1
          }
        }
      }
    }
    node {
      name: "strided_slice_2"
      op: "StridedSlice"
      input: "Shape"
      input: "strided_slice_2/stack"
      input: "strided_slice_2/stack_1"
      input: "strided_slice_2/stack_2"
      attr {
        key: "Index"
        value {
          type: DT_INT32
        }
      }
      attr {
        key: "T"
        value {
          type: DT_INT32
        }
      }
      attr {
        key: "_output_shapes"
        value {
          list {
            shape {
            }
          }
        }
      }
      attr {
        key: "begin_mask"
        value {
          i: 0
        }
      }
      attr {
        key: "ellipsis_mask"
        value {
          i: 0
        }
      }
      attr {
        key: "end_mask"
        value {
          i: 0
        }
      }
      attr {
        key: "new_axis_mask"
        value {
          i: 0
        }
      }
      attr {
        key: "shrink_axis_mask"
        value {
          i: 1
        }
      }
    }
    node {
      name: "strided_slice_3/stack"
      op: "Const"
      attr {
        key: "_output_shapes"
        value {
          list {
            shape {
              dim {
                size: 1
              }
            }
          }
        }
      }
      attr {
        key: "dtype"
        value {
          type: DT_INT32
        }
      }
      attr {
        key: "value"
        value {
          tensor {
            dtype: DT_INT32
            tensor_shape {
              dim {
                size: 1
              }
            }
            int_val: 1
          }
        }
      }
    }
    node {
      name: "strided_slice_3/stack_1"
      op: "Const"
      attr {
        key: "_output_shapes"
        value {
          list {
            shape {
              dim {
                size: 1
              }
            }
          }
        }
      }
      attr {
        key: "dtype"
        value {
          type: DT_INT32
        }
      }
      attr {
        key: "value"
        value {
          tensor {
            dtype: DT_INT32
            tensor_shape {
              dim {
                size: 1
              }
            }
            int_val: 2
          }
        }
      }
    }
    node {
      name: "strided_slice_3/stack_2"
      op: "Const"
      attr {
        key: "_output_shapes"
        value {
          list {
            shape {
              dim {
                size: 1
              }
            }
          }
        }
      }
      attr {
        key: "dtype"
        value {
          type: DT_INT32
        }
      }
      attr {
        key: "value"
        value {
          tensor {
            dtype: DT_INT32
            tensor_shape {
              dim {
                size: 1
              }
            }
            int_val: 1
          }
        }
      }
    }
    node {
      name: "strided_slice_3"
      op: "StridedSlice"
      input: "Shape"
      input: "strided_slice_3/stack"
      input: "strided_slice_3/stack_1"
      input: "strided_slice_3/stack_2"
      attr {
        key: "Index"
        value {
          type: DT_INT32
        }
      }
      attr {
        key: "T"
        value {
          type: DT_INT32
        }
      }
      attr {
        key: "_output_shapes"
        value {
          list {
            shape {
            }
          }
        }
      }
      attr {
        key: "begin_mask"
        value {
          i: 0
        }
      }
      attr {
        key: "ellipsis_mask"
        value {
          i: 0
        }
      }
      attr {
        key: "end_mask"
        value {
          i: 0
        }
      }
      attr {
        key: "new_axis_mask"
        value {
          i: 0
        }
      }
      attr {
        key: "shrink_axis_mask"
        value {
          i: 1
        }
      }
    }
    node {
      name: "sub/x"
      op: "Const"
      attr {
        key: "_output_shapes"
        value {
          list {
            shape {
            }
          }
        }
      }
      attr {
        key: "dtype"
        value {
          type: DT_INT32
        }
      }
      attr {
        key: "value"
        value {
          tensor {
            dtype: DT_INT32
            tensor_shape {
            }
            int_val: 513
          }
        }
      }
    }
    node {
      name: "sub"
      op: "Sub"
      input: "sub/x"
      input: "strided_slice_2"
      attr {
        key: "T"
        value {
          type: DT_INT32
        }
      }
      attr {
        key: "_output_shapes"
        value {
          list {
            shape {
            }
          }
        }
      }
    }
    node {
      name: "Maximum/y"
      op: "Const"
      attr {
        key: "_output_shapes"
        value {
          list {
            shape {
            }
          }
        }
      }
      attr {
        key: "dtype"
        value {
          type: DT_INT32
        }
      }
      attr {
        key: "value"
        value {
          tensor {
            dtype: DT_INT32
            tensor_shape {
            }
            int_val: 0
          }
        }
      }
    }
    node {
      name: "Maximum"
      op: "Maximum"
      input: "sub"
      input: "Maximum/y"
      attr {
        key: "T"
        value {
          type: DT_INT32
        }
      }
      attr {
        key: "_output_shapes"
        value {
          list {
            shape {
            }
          }
        }
      }
    }
    node {
      name: "add"
      op: "Add"
      input: "strided_slice_2"
      input: "Maximum"
      attr {
        key: "T"
        value {
          type: DT_INT32
        }
      }
      attr {
        key: "_output_shapes"
        value {
          list {
            shape {
            }
          }
        }
      }
    }
    node {
      name: "sub_1/x"
      op: "Const"
      attr {
        key: "_output_shapes"
        value {
          list {
            shape {
            }
          }
        }
      }
      attr {
        key: "dtype"
        value {
          type: DT_INT32
        }
      }
      attr {
        key: "value"
        value {
          tensor {
            dtype: DT_INT32
            tensor_shape {
            }
            int_val: 513
          }
        }
      }
    }
    node {
      name: "sub_1"
      op: "Sub"
      input: "sub_1/x"
      input: "strided_slice_3"
      attr {
        key: "T"
        value {
          type: DT_INT32
        }
      }
      attr {
        key: "_output_shapes"
        value {
          list {
            shape {
            }
          }
        }
      }
    }
    node {
      name: "Maximum_1/y"
      op: "Const"
      attr {
        key: "_output_shapes"
        value {
          list {
            shape {
            }
          }
        }
      }
      attr {
        key: "dtype"
        value {
          type: DT_INT32
        }
      }
      attr {
        key: "value"
        value {
          tensor {
            dtype: DT_INT32
            tensor_shape {
            }
            int_val: 0
          }
        }
      }
    }
    node {
      name: "Maximum_1"
      op: "Maximum"
      input: "sub_1"
      input: "Maximum_1/y"
      attr {
        key: "T"
        value {
          type: DT_INT32
        }
      }
      attr {
        key: "_output_shapes"
        value {
          list {
            shape {
            }
          }
        }
      }
    }
    node {
      name: "add_1"
      op: "Add"
      input: "strided_slice_3"
      input: "Maximum_1"
      attr {
        key: "T"
        value {
          type: DT_INT32
        }
      }
      attr {
        key: "_output_shapes"
        value {
          list {
            shape {
            }
          }
        }
      }
    }
    node {
      name: "Reshape_1/tensor"
      op: "Const"
      attr {
        key: "_output_shapes"
        value {
          list {
            shape {
              dim {
                size: 3
              }
            }
          }
        }
      }
      attr {
        key: "dtype"
        value {
          type: DT_FLOAT
        }
      }
      attr {
        key: "value"
        value {
          tensor {
            dtype: DT_FLOAT
            tensor_shape {
              dim {
                size: 3
              }
            }
            tensor_content: "\000\000\377B\000\000\377B\000\000\377B"
          }
        }
      }
    }
    node {
      name: "Reshape_1/shape"
      op: "Const"
      attr {
        key: "_output_shapes"
        value {
          list {
            shape {
              dim {
                size: 3
              }
            }
          }
        }
      }
      attr {
        key: "dtype"
        value {
          type: DT_INT32
        }
      }
      attr {
        key: "value"
        value {
          tensor {
            dtype: DT_INT32
            tensor_shape {
              dim {
                size: 3
              }
            }
            tensor_content: "\001\000\000\000\001\000\000\000\003\000\000\000"
          }
        }
      }
    }
    node {
      name: "Reshape_1"
      op: "Reshape"
      input: "Reshape_1/tensor"
      input: "Reshape_1/shape"
      attr {
        key: "T"
        value {
          type: DT_FLOAT
        }
      }
      attr {
        key: "Tshape"
        value {
          type: DT_INT32
        }
      }
      attr {
        key: "_output_shapes"
        value {
          list {
            shape {
              dim {
                size: 1
              }
              dim {
                size: 1
              }
              dim {
                size: 3
              }
            }
          }
        }
      }
    }
    node {
      name: "pad_to_bounding_box/Rank"
      op: "Const"
      attr {
        key: "_output_shapes"
        value {
          list {
            shape {
            }
          }
        }
      }
      attr {
        key: "dtype"
        value {
          type: DT_INT32
        }
      }
      attr {
        key: "value"
        value {
          tensor {
            dtype: DT_INT32
            tensor_shape {
            }
            int_val: 3
          }
        }
      }
    }
    node {
      name: "pad_to_bounding_box/Equal/y"
      op: "Const"
      attr {
        key: "_output_shapes"
        value {
          list {
            shape {
            }
          }
        }
      }
      attr {
        key: "dtype"
        value {
          type: DT_INT32
        }
      }
      attr {
        key: "value"
        value {
          tensor {
            dtype: DT_INT32
            tensor_shape {
            }
            int_val: 3
          }
        }
      }
    }
    node {
      name: "pad_to_bounding_box/Equal"
      op: "Equal"
      input: "pad_to_bounding_box/Rank"
      input: "pad_to_bounding_box/Equal/y"
      attr {
        key: "T"
        value {
          type: DT_INT32
        }
      }
      attr {
        key: "_output_shapes"
        value {
          list {
            shape {
            }
          }
        }
      }
    }
    node {
      name: "pad_to_bounding_box/Rank_1"
      op: "Const"
      attr {
        key: "_output_shapes"
        value {
          list {
            shape {
            }
          }
        }
      }
      attr {
        key: "dtype"
        value {
          type: DT_INT32
        }
      }
      attr {
        key: "value"
        value {
          tensor {
            dtype: DT_INT32
            tensor_shape {
            }
            int_val: 3
          }
        }
      }
    }
    node {
      name: "pad_to_bounding_box/Equal_1/y"
      op: "Const"
      attr {
        key: "_output_shapes"
        value {
          list {
            shape {
            }
          }
        }
      }
      attr {
        key: "dtype"
        value {
          type: DT_INT32
        }
      }
      attr {
        key: "value"
        value {
          tensor {
            dtype: DT_INT32
            tensor_shape {
            }
            int_val: 4
          }
        }
      }
    }
    node {
      name: "pad_to_bounding_box/Equal_1"
      op: "Equal"
      input: "pad_to_bounding_box/Rank_1"
      input: "pad_to_bounding_box/Equal_1/y"
      attr {
        key: "T"
        value {
          type: DT_INT32
        }
      }
      attr {
        key: "_output_shapes"
        value {
          list {
            shape {
            }
          }
        }
      }
    }
    node {
      name: "pad_to_bounding_box/LogicalOr"
      op: "LogicalOr"
      input: "pad_to_bounding_box/Equal"
      input: "pad_to_bounding_box/Equal_1"
      attr {
        key: "_output_shapes"
        value {
          list {
            shape {
            }
          }
        }
      }
    }
    node {
      name: "pad_to_bounding_box/Assert/Const"
      op: "Const"
      attr {
        key: "_output_shapes"
        value {
          list {
            shape {
            }
          }
        }
      }
      attr {
        key: "dtype"
        value {
          type: DT_STRING
        }
      }
      attr {
        key: "value"
        value {
          tensor {
            dtype: DT_STRING
            tensor_shape {
            }
            string_val: "Wrong image tensor rank."
          }
        }
      }
    }
    node {
      name: "pad_to_bounding_box/Assert/Assert/data_0"
      op: "Const"
      attr {
        key: "_output_shapes"
        value {
          list {
            shape {
            }
          }
        }
      }
      attr {
        key: "dtype"
        value {
          type: DT_STRING
        }
      }
      attr {
        key: "value"
        value {
          tensor {
            dtype: DT_STRING
            tensor_shape {
            }
            string_val: "Wrong image tensor rank."
          }
        }
      }
    }
    node {
      name: "pad_to_bounding_box/Assert/Assert"
      op: "Assert"
      input: "pad_to_bounding_box/LogicalOr"
      input: "pad_to_bounding_box/Assert/Assert/data_0"
      attr {
        key: "T"
        value {
          list {
            type: DT_STRING
          }
        }
      }
      attr {
        key: "summarize"
        value {
          i: 3
        }
      }
    }
    node {
      name: "pad_to_bounding_box/sub"
      op: "Sub"
      input: "Cast_1"
      input: "Reshape_1"
      input: "^pad_to_bounding_box/Assert/Assert"
      attr {
        key: "T"
        value {
          type: DT_FLOAT
        }
      }
      attr {
        key: "_output_shapes"
        value {
          list {
            shape {
              dim {
                size: -1
              }
              dim {
                size: -1
              }
              dim {
                size: 3
              }
            }
          }
        }
      }
    }
    node {
      name: "pad_to_bounding_box/ExpandDims/dim"
      op: "Const"
      attr {
        key: "_output_shapes"
        value {
          list {
            shape {
            }
          }
        }
      }
      attr {
        key: "dtype"
        value {
          type: DT_INT32
        }
      }
      attr {
        key: "value"
        value {
          tensor {
            dtype: DT_INT32
            tensor_shape {
            }
            int_val: 0
          }
        }
      }
    }
    node {
      name: "pad_to_bounding_box/ExpandDims"
      op: "ExpandDims"
      input: "pad_to_bounding_box/sub"
      input: "pad_to_bounding_box/ExpandDims/dim"
      attr {
        key: "T"
        value {
          type: DT_FLOAT
        }
      }
      attr {
        key: "Tdim"
        value {
          type: DT_INT32
        }
      }
      attr {
        key: "_output_shapes"
        value {
          list {
            shape {
              dim {
                size: 1
              }
              dim {
                size: -1
              }
              dim {
                size: -1
              }
              dim {
                size: 3
              }
            }
          }
        }
      }
    }
    node {
      name: "pad_to_bounding_box/Shape"
      op: "Shape"
      input: "pad_to_bounding_box/ExpandDims"
      attr {
        key: "T"
        value {
          type: DT_FLOAT
        }
      }
      attr {
        key: "_output_shapes"
        value {
          list {
            shape {
              dim {
                size: 4
              }
            }
          }
        }
      }
      attr {
        key: "out_type"
        value {
          type: DT_INT32
        }
      }
    }
    node {
      name: "pad_to_bounding_box/unstack"
      op: "Unpack"
      input: "pad_to_bounding_box/Shape"
      attr {
        key: "T"
        value {
          type: DT_INT32
        }
      }
      attr {
        key: "_output_shapes"
        value {
          list {
            shape {
            }
            shape {
            }
            shape {
            }
            shape {
            }
          }
        }
      }
      attr {
        key: "axis"
        value {
          i: 0
        }
      }
      attr {
        key: "num"
        value {
          i: 4
        }
      }
    }
    node {
      name: "pad_to_bounding_box/GreaterEqual"
      op: "GreaterEqual"
      input: "add_1"
      input: "pad_to_bounding_box/unstack:2"
      attr {
        key: "T"
        value {
          type: DT_INT32
        }
      }
      attr {
        key: "_output_shapes"
        value {
          list {
            shape {
            }
          }
        }
      }
    }
    node {
      name: "pad_to_bounding_box/Assert_1/Const"
      op: "Const"
      attr {
        key: "_output_shapes"
        value {
          list {
            shape {
            }
          }
        }
      }
      attr {
        key: "dtype"
        value {
          type: DT_STRING
        }
      }
      attr {
        key: "value"
        value {
          tensor {
            dtype: DT_STRING
            tensor_shape {
            }
            string_val: "target_width must be >= width"
          }
        }
      }
    }
    node {
      name: "pad_to_bounding_box/Assert_1/Assert/data_0"
      op: "Const"
      attr {
        key: "_output_shapes"
        value {
          list {
            shape {
            }
          }
        }
      }
      attr {
        key: "dtype"
        value {
          type: DT_STRING
        }
      }
      attr {
        key: "value"
        value {
          tensor {
            dtype: DT_STRING
            tensor_shape {
            }
            string_val: "target_width must be >= width"
          }
        }
      }
    }
    node {
      name: "pad_to_bounding_box/Assert_1/Assert"
      op: "Assert"
      input: "pad_to_bounding_box/GreaterEqual"
      input: "pad_to_bounding_box/Assert_1/Assert/data_0"
      attr {
        key: "T"
        value {
          list {
            type: DT_STRING
          }
        }
      }
      attr {
        key: "summarize"
        value {
          i: 3
        }
      }
    }
    node {
      name: "pad_to_bounding_box/GreaterEqual_1"
      op: "GreaterEqual"
      input: "add"
      input: "pad_to_bounding_box/unstack:1"
      attr {
        key: "T"
        value {
          type: DT_INT32
        }
      }
      attr {
        key: "_output_shapes"
        value {
          list {
            shape {
            }
          }
        }
      }
    }
    node {
      name: "pad_to_bounding_box/Assert_2/Const"
      op: "Const"
      attr {
        key: "_output_shapes"
        value {
          list {
            shape {
            }
          }
        }
      }
      attr {
        key: "dtype"
        value {
          type: DT_STRING
        }
      }
      attr {
        key: "value"
        value {
          tensor {
            dtype: DT_STRING
            tensor_shape {
            }
            string_val: "target_height must be >= height"
          }
        }
      }
    }
    node {
      name: "pad_to_bounding_box/Assert_2/Assert/data_0"
      op: "Const"
      attr {
        key: "_output_shapes"
        value {
          list {
            shape {
            }
          }
        }
      }
      attr {
        key: "dtype"
        value {
          type: DT_STRING
        }
      }
      attr {
        key: "value"
        value {
          tensor {
            dtype: DT_STRING
            tensor_shape {
            }
            string_val: "target_height must be >= height"
          }
        }
      }
    }
    node {
      name: "pad_to_bounding_box/Assert_2/Assert"
      op: "Assert"
      input: "pad_to_bounding_box/GreaterEqual_1"
      input: "pad_to_bounding_box/Assert_2/Assert/data_0"
      attr {
        key: "T"
        value {
          list {
            type: DT_STRING
          }
        }
      }
      attr {
        key: "summarize"
        value {
          i: 3
        }
      }
    }
    node {
      name: "pad_to_bounding_box/sub_1/y"
      op: "Const"
      input: "^pad_to_bounding_box/Assert_1/Assert"
      attr {
        key: "_output_shapes"
        value {
          list {
            shape {
            }
          }
        }
      }
      attr {
        key: "dtype"
        value {
          type: DT_INT32
        }
      }
      attr {
        key: "value"
        value {
          tensor {
            dtype: DT_INT32
            tensor_shape {
            }
            int_val: 0
          }
        }
      }
    }
    node {
      name: "pad_to_bounding_box/sub_1"
      op: "Sub"
      input: "add_1"
      input: "pad_to_bounding_box/sub_1/y"
      attr {
        key: "T"
        value {
          type: DT_INT32
        }
      }
      attr {
        key: "_output_shapes"
        value {
          list {
            shape {
            }
          }
        }
      }
    }
    node {
      name: "pad_to_bounding_box/sub_2"
      op: "Sub"
      input: "pad_to_bounding_box/sub_1"
      input: "pad_to_bounding_box/unstack:2"
      attr {
        key: "T"
        value {
          type: DT_INT32
        }
      }
      attr {
        key: "_output_shapes"
        value {
          list {
            shape {
            }
          }
        }
      }
    }
    node {
      name: "pad_to_bounding_box/sub_3/y"
      op: "Const"
      input: "^pad_to_bounding_box/Assert_2/Assert"
      attr {
        key: "_output_shapes"
        value {
          list {
            shape {
            }
          }
        }
      }
      attr {
        key: "dtype"
        value {
          type: DT_INT32
        }
      }
      attr {
        key: "value"
        value {
          tensor {
            dtype: DT_INT32
            tensor_shape {
            }
            int_val: 0
          }
        }
      }
    }
    node {
      name: "pad_to_bounding_box/sub_3"
      op: "Sub"
      input: "add"
      input: "pad_to_bounding_box/sub_3/y"
      attr {
        key: "T"
        value {
          type: DT_INT32
        }
      }
      attr {
        key: "_output_shapes"
        value {
          list {
            shape {
            }
          }
        }
      }
    }
    node {
      name: "pad_to_bounding_box/sub_4"
      op: "Sub"
      input: "pad_to_bounding_box/sub_3"
      input: "pad_to_bounding_box/unstack:1"
      attr {
        key: "T"
        value {
          type: DT_INT32
        }
      }
      attr {
        key: "_output_shapes"
        value {
          list {
            shape {
            }
          }
        }
      }
    }
    node {
      name: "pad_to_bounding_box/GreaterEqual_2/y"
      op: "Const"
      attr {
        key: "_output_shapes"
        value {
          list {
            shape {
            }
          }
        }
      }
      attr {
        key: "dtype"
        value {
          type: DT_INT32
        }
      }
      attr {
        key: "value"
        value {
          tensor {
            dtype: DT_INT32
            tensor_shape {
            }
            int_val: 0
          }
        }
      }
    }
    node {
      name: "pad_to_bounding_box/GreaterEqual_2"
      op: "GreaterEqual"
      input: "pad_to_bounding_box/sub_2"
      input: "pad_to_bounding_box/GreaterEqual_2/y"
      attr {
        key: "T"
        value {
          type: DT_INT32
        }
      }
      attr {
        key: "_output_shapes"
        value {
          list {
            shape {
            }
          }
        }
      }
    }
    node {
      name: "pad_to_bounding_box/GreaterEqual_3/y"
      op: "Const"
      attr {
        key: "_output_shapes"
        value {
          list {
            shape {
            }
          }
        }
      }
      attr {
        key: "dtype"
        value {
          type: DT_INT32
        }
      }
      attr {
        key: "value"
        value {
          tensor {
            dtype: DT_INT32
            tensor_shape {
            }
            int_val: 0
          }
        }
      }
    }
    node {
      name: "pad_to_bounding_box/GreaterEqual_3"
      op: "GreaterEqual"
      input: "pad_to_bounding_box/sub_4"
      input: "pad_to_bounding_box/GreaterEqual_3/y"
      attr {
        key: "T"
        value {
          type: DT_INT32
        }
      }
      attr {
        key: "_output_shapes"
        value {
          list {
            shape {
            }
          }
        }
      }
    }
    node {
      name: "pad_to_bounding_box/LogicalAnd"
      op: "LogicalAnd"
      input: "pad_to_bounding_box/GreaterEqual_2"
      input: "pad_to_bounding_box/GreaterEqual_3"
      attr {
        key: "_output_shapes"
        value {
          list {
            shape {
            }
          }
        }
      }
    }
    node {
      name: "pad_to_bounding_box/Assert_3/Const"
      op: "Const"
      attr {
        key: "_output_shapes"
        value {
          list {
            shape {
            }
          }
        }
      }
      attr {
        key: "dtype"
        value {
          type: DT_STRING
        }
      }
      attr {
        key: "value"
        value {
          tensor {
            dtype: DT_STRING
            tensor_shape {
            }
            string_val: "target size not possible with the given target offsets"
          }
        }
      }
    }
    node {
      name: "pad_to_bounding_box/Assert_3/Assert/data_0"
      op: "Const"
      attr {
        key: "_output_shapes"
        value {
          list {
            shape {
            }
          }
        }
      }
      attr {
        key: "dtype"
        value {
          type: DT_STRING
        }
      }
      attr {
        key: "value"
        value {
          tensor {
            dtype: DT_STRING
            tensor_shape {
            }
            string_val: "target size not possible with the given target offsets"
          }
        }
      }
    }
    node {
      name: "pad_to_bounding_box/Assert_3/Assert"
      op: "Assert"
      input: "pad_to_bounding_box/LogicalAnd"
      input: "pad_to_bounding_box/Assert_3/Assert/data_0"
      attr {
        key: "T"
        value {
          list {
            type: DT_STRING
          }
        }
      }
      attr {
        key: "summarize"
        value {
          i: 3
        }
      }
    }
    node {
      name: "pad_to_bounding_box/stack"
      op: "Const"
      attr {
        key: "_output_shapes"
        value {
          list {
            shape {
              dim {
                size: 2
              }
            }
          }
        }
      }
      attr {
        key: "dtype"
        value {
          type: DT_INT32
        }
      }
      attr {
        key: "value"
        value {
          tensor {
            dtype: DT_INT32
            tensor_shape {
              dim {
                size: 2
              }
            }
            tensor_content: "\000\000\000\000\000\000\000\000"
          }
        }
      }
    }
    node {
      name: "pad_to_bounding_box/stack_1/0"
      op: "Const"
      attr {
        key: "_output_shapes"
        value {
          list {
            shape {
            }
          }
        }
      }
      attr {
        key: "dtype"
        value {
          type: DT_INT32
        }
      }
      attr {
        key: "value"
        value {
          tensor {
            dtype: DT_INT32
            tensor_shape {
            }
            int_val: 0
          }
        }
      }
    }
    node {
      name: "pad_to_bounding_box/stack_1"
      op: "Pack"
      input: "pad_to_bounding_box/stack_1/0"
      input: "pad_to_bounding_box/sub_4"
      attr {
        key: "N"
        value {
          i: 2
        }
      }
      attr {
        key: "T"
        value {
          type: DT_INT32
        }
      }
      attr {
        key: "_output_shapes"
        value {
          list {
            shape {
              dim {
                size: 2
              }
            }
          }
        }
      }
      attr {
        key: "axis"
        value {
          i: 0
        }
      }
    }
    node {
      name: "pad_to_bounding_box/stack_2/0"
      op: "Const"
      attr {
        key: "_output_shapes"
        value {
          list {
            shape {
            }
          }
        }
      }
      attr {
        key: "dtype"
        value {
          type: DT_INT32
        }
      }
      attr {
        key: "value"
        value {
          tensor {
            dtype: DT_INT32
            tensor_shape {
            }
            int_val: 0
          }
        }
      }
    }
    node {
      name: "pad_to_bounding_box/stack_2"
      op: "Pack"
      input: "pad_to_bounding_box/stack_2/0"
      input: "pad_to_bounding_box/sub_2"
      attr {
        key: "N"
        value {
          i: 2
        }
      }
      attr {
        key: "T"
        value {
          type: DT_INT32
        }
      }
      attr {
        key: "_output_shapes"
        value {
          list {
            shape {
              dim {
                size: 2
              }
            }
          }
        }
      }
      attr {
        key: "axis"
        value {
          i: 0
        }
      }
    }
    node {
      name: "pad_to_bounding_box/stack_3"
      op: "Const"
      attr {
        key: "_output_shapes"
        value {
          list {
            shape {
              dim {
                size: 2
              }
            }
          }
        }
      }
      attr {
        key: "dtype"
        value {
          type: DT_INT32
        }
      }
      attr {
        key: "value"
        value {
          tensor {
            dtype: DT_INT32
            tensor_shape {
              dim {
                size: 2
              }
            }
            tensor_content: "\000\000\000\000\000\000\000\000"
          }
        }
      }
    }
    node {
      name: "pad_to_bounding_box/stack_4"
      op: "Pack"
      input: "pad_to_bounding_box/stack"
      input: "pad_to_bounding_box/stack_1"
      input: "pad_to_bounding_box/stack_2"
      input: "pad_to_bounding_box/stack_3"
      input: "^pad_to_bounding_box/Assert_3/Assert"
      attr {
        key: "N"
        value {
          i: 4
        }
      }
      attr {
        key: "T"
        value {
          type: DT_INT32
        }
      }
      attr {
        key: "_output_shapes"
        value {
          list {
            shape {
              dim {
                size: 4
              }
              dim {
                size: 2
              }
            }
          }
        }
      }
      attr {
        key: "axis"
        value {
          i: 0
        }
      }
    }
    node {
      name: "pad_to_bounding_box/Pad"
      op: "Pad"
      input: "pad_to_bounding_box/ExpandDims"
      input: "pad_to_bounding_box/stack_4"
      attr {
        key: "T"
        value {
          type: DT_FLOAT
        }
      }
      attr {
        key: "Tpaddings"
        value {
          type: DT_INT32
        }
      }
      attr {
        key: "_output_shapes"
        value {
          list {
            shape {
              dim {
                size: 1
              }
              dim {
                size: -1
              }
              dim {
                size: -1
              }
              dim {
                size: 3
              }
            }
          }
        }
      }
    }
    node {
      name: "pad_to_bounding_box/Squeeze"
      op: "Squeeze"
      input: "pad_to_bounding_box/Pad"
      attr {
        key: "T"
        value {
          type: DT_FLOAT
        }
      }
      attr {
        key: "_output_shapes"
        value {
          list {
            shape {
              dim {
                size: -1
              }
              dim {
                size: -1
              }
              dim {
                size: 3
              }
            }
          }
        }
      }
      attr {
        key: "squeeze_dims"
        value {
          list {
            i: 0
          }
        }
      }
    }
    node {
      name: "pad_to_bounding_box/add"
      op: "Add"
      input: "pad_to_bounding_box/Squeeze"
      input: "Reshape_1"
      attr {
        key: "T"
        value {
          type: DT_FLOAT
        }
      }
      attr {
        key: "_output_shapes"
        value {
          list {
            shape {
              dim {
                size: 513
              }
              dim {
                size: 513
              }
              dim {
                size: 3
              }
            }
          }
        }
      }
    }
    node {
      name: "strided_slice_4/stack"
      op: "Const"
      attr {
        key: "_output_shapes"
        value {
          list {
            shape {
              dim {
                size: 1
              }
            }
          }
        }
      }
      attr {
        key: "dtype"
        value {
          type: DT_INT32
        }
      }
      attr {
        key: "value"
        value {
          tensor {
            dtype: DT_INT32
            tensor_shape {
              dim {
                size: 1
              }
            }
            int_val: 1
          }
        }
      }
    }
    node {
      name: "strided_slice_4/stack_1"
      op: "Const"
      attr {
        key: "_output_shapes"
        value {
          list {
            shape {
              dim {
                size: 1
              }
            }
          }
        }
      }
      attr {
        key: "dtype"
        value {
          type: DT_INT32
        }
      }
      attr {
        key: "value"
        value {
          tensor {
            dtype: DT_INT32
            tensor_shape {
              dim {
                size: 1
              }
            }
            int_val: 2
          }
        }
      }
    }
    node {
      name: "strided_slice_4/stack_2"
      op: "Const"
      attr {
        key: "_output_shapes"
        value {
          list {
            shape {
              dim {
                size: 1
              }
            }
          }
        }
      }
      attr {
        key: "dtype"
        value {
          type: DT_INT32
        }
      }
      attr {
        key: "value"
        value {
          tensor {
            dtype: DT_INT32
            tensor_shape {
              dim {
                size: 1
              }
            }
            int_val: 1
          }
        }
      }
    }
    node {
      name: "strided_slice_4"
      op: "StridedSlice"
      input: "height"
      input: "strided_slice_4/stack"
      input: "strided_slice_4/stack_1"
      input: "strided_slice_4/stack_2"
      attr {
        key: "Index"
        value {
          type: DT_INT32
        }
      }
      attr {
        key: "T"
        value {
          type: DT_INT32
        }
      }
      attr {
        key: "_output_shapes"
        value {
          list {
            shape {
            }
          }
        }
      }
      attr {
        key: "begin_mask"
        value {
          i: 0
        }
      }
      attr {
        key: "ellipsis_mask"
        value {
          i: 0
        }
      }
      attr {
        key: "end_mask"
        value {
          i: 0
        }
      }
      attr {
        key: "new_axis_mask"
        value {
          i: 0
        }
      }
      attr {
        key: "shrink_axis_mask"
        value {
          i: 1
        }
      }
    }
    node {
      name: "strided_slice_5/stack"
      op: "Const"
      attr {
        key: "_output_shapes"
        value {
          list {
            shape {
              dim {
                size: 1
              }
            }
          }
        }
      }
      attr {
        key: "dtype"
        value {
          type: DT_INT32
        }
      }
      attr {
        key: "value"
        value {
          tensor {
            dtype: DT_INT32
            tensor_shape {
              dim {
                size: 1
              }
            }
            int_val: 1
          }
        }
      }
    }
    node {
      name: "strided_slice_5/stack_1"
      op: "Const"
      attr {
        key: "_output_shapes"
        value {
          list {
            shape {
              dim {
                size: 1
              }
            }
          }
        }
      }
      attr {
        key: "dtype"
        value {
          type: DT_INT32
        }
      }
      attr {
        key: "value"
        value {
          tensor {
            dtype: DT_INT32
            tensor_shape {
              dim {
                size: 1
              }
            }
            int_val: 2
          }
        }
      }
    }
    node {
      name: "strided_slice_5/stack_2"
      op: "Const"
      attr {
        key: "_output_shapes"
        value {
          list {
            shape {
              dim {
                size: 1
              }
            }
          }
        }
      }
      attr {
        key: "dtype"
        value {
          type: DT_INT32
        }
      }
      attr {
        key: "value"
        value {
          tensor {
            dtype: DT_INT32
            tensor_shape {
              dim {
                size: 1
              }
            }
            int_val: 1
          }
        }
      }
    }
    node {
      name: "strided_slice_5"
      op: "StridedSlice"
      input: "width"
      input: "strided_slice_5/stack"
      input: "strided_slice_5/stack_1"
      input: "strided_slice_5/stack_2"
      attr {
        key: "Index"
        value {
          type: DT_INT32
        }
      }
      attr {
        key: "T"
        value {
          type: DT_INT32
        }
      }
      attr {
        key: "_output_shapes"
        value {
          list {
            shape {
            }
          }
        }
      }
      attr {
        key: "begin_mask"
        value {
          i: 0
        }
      }
      attr {
        key: "ellipsis_mask"
        value {
          i: 0
        }
      }
      attr {
        key: "end_mask"
        value {
          i: 0
        }
      }
      attr {
        key: "new_axis_mask"
        value {
          i: 0
        }
      }
      attr {
        key: "shrink_axis_mask"
        value {
          i: 1
        }
      }
    }
    node {
      name: "Reshape_2/shape/2"
      op: "Const"
      attr {
        key: "_output_shapes"
        value {
          list {
            shape {
            }
          }
        }
      }
      attr {
        key: "dtype"
        value {
          type: DT_INT32
        }
      }
      attr {
        key: "value"
        value {
          tensor {
            dtype: DT_INT32
            tensor_shape {
            }
            int_val: 3
          }
        }
      }
    }
    node {
      name: "Reshape_2/shape"
      op: "Pack"
      input: "strided_slice_4"
      input: "strided_slice_5"
      input: "Reshape_2/shape/2"
      attr {
        key: "N"
        value {
          i: 3
        }
      }
      attr {
        key: "T"
        value {
          type: DT_INT32
        }
      }
      attr {
        key: "_output_shapes"
        value {
          list {
            shape {
              dim {
                size: 3
              }
            }
          }
        }
      }
      attr {
        key: "axis"
        value {
          i: 0
        }
      }
    }
    node {
      name: "Reshape_2"
      op: "Reshape"
      input: "split:1"
      input: "Reshape_2/shape"
      attr {
        key: "T"
        value {
          type: DT_UINT8
        }
      }
      attr {
        key: "Tshape"
        value {
          type: DT_INT32
        }
      }
      attr {
        key: "_output_shapes"
        value {
          list {
            shape {
              dim {
                size: -1
              }
              dim {
                size: -1
              }
              dim {
                size: 3
              }
            }
          }
        }
      }
    }
    node {
      name: "Cast_2"
      op: "Cast"
      input: "Reshape_2"
      attr {
        key: "DstT"
        value {
          type: DT_FLOAT
        }
      }
      attr {
        key: "SrcT"
        value {
          type: DT_UINT8
        }
      }
      attr {
        key: "Truncate"
        value {
          b: false
        }
      }
      attr {
        key: "_output_shapes"
        value {
          list {
            shape {
              dim {
                size: -1
              }
              dim {
                size: -1
              }
              dim {
                size: 3
              }
            }
          }
        }
      }
    }
    node {
      name: "Shape_1"
      op: "Shape"
      input: "Cast_2"
      attr {
        key: "T"
        value {
          type: DT_FLOAT
        }
      }
      attr {
        key: "_output_shapes"
        value {
          list {
            shape {
              dim {
                size: 3
              }
            }
          }
        }
      }
      attr {
        key: "out_type"
        value {
          type: DT_INT32
        }
      }
    }
    node {
      name: "strided_slice_6/stack"
      op: "Const"
      attr {
        key: "_output_shapes"
        value {
          list {
            shape {
              dim {
                size: 1
              }
            }
          }
        }
      }
      attr {
        key: "dtype"
        value {
          type: DT_INT32
        }
      }
      attr {
        key: "value"
        value {
          tensor {
            dtype: DT_INT32
            tensor_shape {
              dim {
                size: 1
              }
            }
            int_val: 0
          }
        }
      }
    }
    node {
      name: "strided_slice_6/stack_1"
      op: "Const"
      attr {
        key: "_output_shapes"
        value {
          list {
            shape {
              dim {
                size: 1
              }
            }
          }
        }
      }
      attr {
        key: "dtype"
        value {
          type: DT_INT32
        }
      }
      attr {
        key: "value"
        value {
          tensor {
            dtype: DT_INT32
            tensor_shape {
              dim {
                size: 1
              }
            }
            int_val: 1
          }
        }
      }
    }
    node {
      name: "strided_slice_6/stack_2"
      op: "Const"
      attr {
        key: "_output_shapes"
        value {
          list {
            shape {
              dim {
                size: 1
              }
            }
          }
        }
      }
      attr {
        key: "dtype"
        value {
          type: DT_INT32
        }
      }
      attr {
        key: "value"
        value {
          tensor {
            dtype: DT_INT32
            tensor_shape {
              dim {
                size: 1
              }
            }
            int_val: 1
          }
        }
      }
    }
    node {
      name: "strided_slice_6"
      op: "StridedSlice"
      input: "Shape_1"
      input: "strided_slice_6/stack"
      input: "strided_slice_6/stack_1"
      input: "strided_slice_6/stack_2"
      attr {
        key: "Index"
        value {
          type: DT_INT32
        }
      }
      attr {
        key: "T"
        value {
          type: DT_INT32
        }
      }
      attr {
        key: "_output_shapes"
        value {
          list {
            shape {
            }
          }
        }
      }
      attr {
        key: "begin_mask"
        value {
          i: 0
        }
      }
      attr {
        key: "ellipsis_mask"
        value {
          i: 0
        }
      }
      attr {
        key: "end_mask"
        value {
          i: 0
        }
      }
      attr {
        key: "new_axis_mask"
        value {
          i: 0
        }
      }
      attr {
        key: "shrink_axis_mask"
        value {
          i: 1
        }
      }
    }
    node {
      name: "strided_slice_7/stack"
      op: "Const"
      attr {
        key: "_output_shapes"
        value {
          list {
            shape {
              dim {
                size: 1
              }
            }
          }
        }
      }
      attr {
        key: "dtype"
        value {
          type: DT_INT32
        }
      }
      attr {
        key: "value"
        value {
          tensor {
            dtype: DT_INT32
            tensor_shape {
              dim {
                size: 1
              }
            }
            int_val: 1
          }
        }
      }
    }
    node {
      name: "strided_slice_7/stack_1"
      op: "Const"
      attr {
        key: "_output_shapes"
        value {
          list {
            shape {
              dim {
                size: 1
              }
            }
          }
        }
      }
      attr {
        key: "dtype"
        value {
          type: DT_INT32
        }
      }
      attr {
        key: "value"
        value {
          tensor {
            dtype: DT_INT32
            tensor_shape {
              dim {
                size: 1
              }
            }
            int_val: 2
          }
        }
      }
    }
    node {
      name: "strided_slice_7/stack_2"
      op: "Const"
      attr {
        key: "_output_shapes"
        value {
          list {
            shape {
              dim {
                size: 1
              }
            }
          }
        }
      }
      attr {
        key: "dtype"
        value {
          type: DT_INT32
        }
      }
      attr {
        key: "value"
        value {
          tensor {
            dtype: DT_INT32
            tensor_shape {
              dim {
                size: 1
              }
            }
            int_val: 1
          }
        }
      }
    }
    node {
      name: "strided_slice_7"
      op: "StridedSlice"
      input: "Shape_1"
      input: "strided_slice_7/stack"
      input: "strided_slice_7/stack_1"
      input: "strided_slice_7/stack_2"
      attr {
        key: "Index"
        value {
          type: DT_INT32
        }
      }
      attr {
        key: "T"
        value {
          type: DT_INT32
        }
      }
      attr {
        key: "_output_shapes"
        value {
          list {
            shape {
            }
          }
        }
      }
      attr {
        key: "begin_mask"
        value {
          i: 0
        }
      }
      attr {
        key: "ellipsis_mask"
        value {
          i: 0
        }
      }
      attr {
        key: "end_mask"
        value {
          i: 0
        }
      }
      attr {
        key: "new_axis_mask"
        value {
          i: 0
        }
      }
      attr {
        key: "shrink_axis_mask"
        value {
          i: 1
        }
      }
    }
    node {
      name: "sub_2/x"
      op: "Const"
      attr {
        key: "_output_shapes"
        value {
          list {
            shape {
            }
          }
        }
      }
      attr {
        key: "dtype"
        value {
          type: DT_INT32
        }
      }
      attr {
        key: "value"
        value {
          tensor {
            dtype: DT_INT32
            tensor_shape {
            }
            int_val: 513
          }
        }
      }
    }
    node {
      name: "sub_2"
      op: "Sub"
      input: "sub_2/x"
      input: "strided_slice_6"
      attr {
        key: "T"
        value {
          type: DT_INT32
        }
      }
      attr {
        key: "_output_shapes"
        value {
          list {
            shape {
            }
          }
        }
      }
    }
    node {
      name: "Maximum_2/y"
      op: "Const"
      attr {
        key: "_output_shapes"
        value {
          list {
            shape {
            }
          }
        }
      }
      attr {
        key: "dtype"
        value {
          type: DT_INT32
        }
      }
      attr {
        key: "value"
        value {
          tensor {
            dtype: DT_INT32
            tensor_shape {
            }
            int_val: 0
          }
        }
      }
    }
    node {
      name: "Maximum_2"
      op: "Maximum"
      input: "sub_2"
      input: "Maximum_2/y"
      attr {
        key: "T"
        value {
          type: DT_INT32
        }
      }
      attr {
        key: "_output_shapes"
        value {
          list {
            shape {
            }
          }
        }
      }
    }
    node {
      name: "add_2"
      op: "Add"
      input: "strided_slice_6"
      input: "Maximum_2"
      attr {
        key: "T"
        value {
          type: DT_INT32
        }
      }
      attr {
        key: "_output_shapes"
        value {
          list {
            shape {
            }
          }
        }
      }
    }
    node {
      name: "sub_3/x"
      op: "Const"
      attr {
        key: "_output_shapes"
        value {
          list {
            shape {
            }
          }
        }
      }
      attr {
        key: "dtype"
        value {
          type: DT_INT32
        }
      }
      attr {
        key: "value"
        value {
          tensor {
            dtype: DT_INT32
            tensor_shape {
            }
            int_val: 513
          }
        }
      }
    }
    node {
      name: "sub_3"
      op: "Sub"
      input: "sub_3/x"
      input: "strided_slice_7"
      attr {
        key: "T"
        value {
          type: DT_INT32
        }
      }
      attr {
        key: "_output_shapes"
        value {
          list {
            shape {
            }
          }
        }
      }
    }
    node {
      name: "Maximum_3/y"
      op: "Const"
      attr {
        key: "_output_shapes"
        value {
          list {
            shape {
            }
          }
        }
      }
      attr {
        key: "dtype"
        value {
          type: DT_INT32
        }
      }
      attr {
        key: "value"
        value {
          tensor {
            dtype: DT_INT32
            tensor_shape {
            }
            int_val: 0
          }
        }
      }
    }
    node {
      name: "Maximum_3"
      op: "Maximum"
      input: "sub_3"
      input: "Maximum_3/y"
      attr {
        key: "T"
        value {
          type: DT_INT32
        }
      }
      attr {
        key: "_output_shapes"
        value {
          list {
            shape {
            }
          }
        }
      }
    }
    node {
      name: "add_3"
      op: "Add"
      input: "strided_slice_7"
      input: "Maximum_3"
      attr {
        key: "T"
        value {
          type: DT_INT32
        }
      }
      attr {
        key: "_output_shapes"
        value {
          list {
            shape {
            }
          }
        }
      }
    }
    node {
      name: "Reshape_3/tensor"
      op: "Const"
      attr {
        key: "_output_shapes"
        value {
          list {
            shape {
              dim {
                size: 3
              }
            }
          }
        }
      }
      attr {
        key: "dtype"
        value {
          type: DT_FLOAT
        }
      }
      attr {
        key: "value"
        value {
          tensor {
            dtype: DT_FLOAT
            tensor_shape {
              dim {
                size: 3
              }
            }
            tensor_content: "\000\000\377B\000\000\377B\000\000\377B"
          }
        }
      }
    }
    node {
      name: "Reshape_3/shape"
      op: "Const"
      attr {
        key: "_output_shapes"
        value {
          list {
            shape {
              dim {
                size: 3
              }
            }
          }
        }
      }
      attr {
        key: "dtype"
        value {
          type: DT_INT32
        }
      }
      attr {
        key: "value"
        value {
          tensor {
            dtype: DT_INT32
            tensor_shape {
              dim {
                size: 3
              }
            }
            tensor_content: "\001\000\000\000\001\000\000\000\003\000\000\000"
          }
        }
      }
    }
    node {
      name: "Reshape_3"
      op: "Reshape"
      input: "Reshape_3/tensor"
      input: "Reshape_3/shape"
      attr {
        key: "T"
        value {
          type: DT_FLOAT
        }
      }
      attr {
        key: "Tshape"
        value {
          type: DT_INT32
        }
      }
      attr {
        key: "_output_shapes"
        value {
          list {
            shape {
              dim {
                size: 1
              }
              dim {
                size: 1
              }
              dim {
                size: 3
              }
            }
          }
        }
      }
    }
    node {
      name: "pad_to_bounding_box_1/Rank"
      op: "Const"
      attr {
        key: "_output_shapes"
        value {
          list {
            shape {
            }
          }
        }
      }
      attr {
        key: "dtype"
        value {
          type: DT_INT32
        }
      }
      attr {
        key: "value"
        value {
          tensor {
            dtype: DT_INT32
            tensor_shape {
            }
            int_val: 3
          }
        }
      }
    }
    node {
      name: "pad_to_bounding_box_1/Equal/y"
      op: "Const"
      attr {
        key: "_output_shapes"
        value {
          list {
            shape {
            }
          }
        }
      }
      attr {
        key: "dtype"
        value {
          type: DT_INT32
        }
      }
      attr {
        key: "value"
        value {
          tensor {
            dtype: DT_INT32
            tensor_shape {
            }
            int_val: 3
          }
        }
      }
    }
    node {
      name: "pad_to_bounding_box_1/Equal"
      op: "Equal"
      input: "pad_to_bounding_box_1/Rank"
      input: "pad_to_bounding_box_1/Equal/y"
      attr {
        key: "T"
        value {
          type: DT_INT32
        }
      }
      attr {
        key: "_output_shapes"
        value {
          list {
            shape {
            }
          }
        }
      }
    }
    node {
      name: "pad_to_bounding_box_1/Rank_1"
      op: "Const"
      attr {
        key: "_output_shapes"
        value {
          list {
            shape {
            }
          }
        }
      }
      attr {
        key: "dtype"
        value {
          type: DT_INT32
        }
      }
      attr {
        key: "value"
        value {
          tensor {
            dtype: DT_INT32
            tensor_shape {
            }
            int_val: 3
          }
        }
      }
    }
    node {
      name: "pad_to_bounding_box_1/Equal_1/y"
      op: "Const"
      attr {
        key: "_output_shapes"
        value {
          list {
            shape {
            }
          }
        }
      }
      attr {
        key: "dtype"
        value {
          type: DT_INT32
        }
      }
      attr {
        key: "value"
        value {
          tensor {
            dtype: DT_INT32
            tensor_shape {
            }
            int_val: 4
          }
        }
      }
    }
    node {
      name: "pad_to_bounding_box_1/Equal_1"
      op: "Equal"
      input: "pad_to_bounding_box_1/Rank_1"
      input: "pad_to_bounding_box_1/Equal_1/y"
      attr {
        key: "T"
        value {
          type: DT_INT32
        }
      }
      attr {
        key: "_output_shapes"
        value {
          list {
            shape {
            }
          }
        }
      }
    }
    node {
      name: "pad_to_bounding_box_1/LogicalOr"
      op: "LogicalOr"
      input: "pad_to_bounding_box_1/Equal"
      input: "pad_to_bounding_box_1/Equal_1"
      attr {
        key: "_output_shapes"
        value {
          list {
            shape {
            }
          }
        }
      }
    }
    node {
      name: "pad_to_bounding_box_1/Assert/Const"
      op: "Const"
      attr {
        key: "_output_shapes"
        value {
          list {
            shape {
            }
          }
        }
      }
      attr {
        key: "dtype"
        value {
          type: DT_STRING
        }
      }
      attr {
        key: "value"
        value {
          tensor {
            dtype: DT_STRING
            tensor_shape {
            }
            string_val: "Wrong image tensor rank."
          }
        }
      }
    }
    node {
      name: "pad_to_bounding_box_1/Assert/Assert/data_0"
      op: "Const"
      attr {
        key: "_output_shapes"
        value {
          list {
            shape {
            }
          }
        }
      }
      attr {
        key: "dtype"
        value {
          type: DT_STRING
        }
      }
      attr {
        key: "value"
        value {
          tensor {
            dtype: DT_STRING
            tensor_shape {
            }
            string_val: "Wrong image tensor rank."
          }
        }
      }
    }
    node {
      name: "pad_to_bounding_box_1/Assert/Assert"
      op: "Assert"
      input: "pad_to_bounding_box_1/LogicalOr"
      input: "pad_to_bounding_box_1/Assert/Assert/data_0"
      attr {
        key: "T"
        value {
          list {
            type: DT_STRING
          }
        }
      }
      attr {
        key: "summarize"
        value {
          i: 3
        }
      }
    }
    node {
      name: "pad_to_bounding_box_1/sub"
      op: "Sub"
      input: "Cast_2"
      input: "Reshape_3"
      input: "^pad_to_bounding_box_1/Assert/Assert"
      attr {
        key: "T"
        value {
          type: DT_FLOAT
        }
      }
      attr {
        key: "_output_shapes"
        value {
          list {
            shape {
              dim {
                size: -1
              }
              dim {
                size: -1
              }
              dim {
                size: 3
              }
            }
          }
        }
      }
    }
    node {
      name: "pad_to_bounding_box_1/ExpandDims/dim"
      op: "Const"
      attr {
        key: "_output_shapes"
        value {
          list {
            shape {
            }
          }
        }
      }
      attr {
        key: "dtype"
        value {
          type: DT_INT32
        }
      }
      attr {
        key: "value"
        value {
          tensor {
            dtype: DT_INT32
            tensor_shape {
            }
            int_val: 0
          }
        }
      }
    }
    node {
      name: "pad_to_bounding_box_1/ExpandDims"
      op: "ExpandDims"
      input: "pad_to_bounding_box_1/sub"
      input: "pad_to_bounding_box_1/ExpandDims/dim"
      attr {
        key: "T"
        value {
          type: DT_FLOAT
        }
      }
      attr {
        key: "Tdim"
        value {
          type: DT_INT32
        }
      }
      attr {
        key: "_output_shapes"
        value {
          list {
            shape {
              dim {
                size: 1
              }
              dim {
                size: -1
              }
              dim {
                size: -1
              }
              dim {
                size: 3
              }
            }
          }
        }
      }
    }
    node {
      name: "pad_to_bounding_box_1/Shape"
      op: "Shape"
      input: "pad_to_bounding_box_1/ExpandDims"
      attr {
        key: "T"
        value {
          type: DT_FLOAT
        }
      }
      attr {
        key: "_output_shapes"
        value {
          list {
            shape {
              dim {
                size: 4
              }
            }
          }
        }
      }
      attr {
        key: "out_type"
        value {
          type: DT_INT32
        }
      }
    }
    node {
      name: "pad_to_bounding_box_1/unstack"
      op: "Unpack"
      input: "pad_to_bounding_box_1/Shape"
      attr {
        key: "T"
        value {
          type: DT_INT32
        }
      }
      attr {
        key: "_output_shapes"
        value {
          list {
            shape {
            }
            shape {
            }
            shape {
            }
            shape {
            }
          }
        }
      }
      attr {
        key: "axis"
        value {
          i: 0
        }
      }
      attr {
        key: "num"
        value {
          i: 4
        }
      }
    }
    node {
      name: "pad_to_bounding_box_1/GreaterEqual"
      op: "GreaterEqual"
      input: "add_3"
      input: "pad_to_bounding_box_1/unstack:2"
      attr {
        key: "T"
        value {
          type: DT_INT32
        }
      }
      attr {
        key: "_output_shapes"
        value {
          list {
            shape {
            }
          }
        }
      }
    }
    node {
      name: "pad_to_bounding_box_1/Assert_1/Const"
      op: "Const"
      attr {
        key: "_output_shapes"
        value {
          list {
            shape {
            }
          }
        }
      }
      attr {
        key: "dtype"
        value {
          type: DT_STRING
        }
      }
      attr {
        key: "value"
        value {
          tensor {
            dtype: DT_STRING
            tensor_shape {
            }
            string_val: "target_width must be >= width"
          }
        }
      }
    }
    node {
      name: "pad_to_bounding_box_1/Assert_1/Assert/data_0"
      op: "Const"
      attr {
        key: "_output_shapes"
        value {
          list {
            shape {
            }
          }
        }
      }
      attr {
        key: "dtype"
        value {
          type: DT_STRING
        }
      }
      attr {
        key: "value"
        value {
          tensor {
            dtype: DT_STRING
            tensor_shape {
            }
            string_val: "target_width must be >= width"
          }
        }
      }
    }
    node {
      name: "pad_to_bounding_box_1/Assert_1/Assert"
      op: "Assert"
      input: "pad_to_bounding_box_1/GreaterEqual"
      input: "pad_to_bounding_box_1/Assert_1/Assert/data_0"
      attr {
        key: "T"
        value {
          list {
            type: DT_STRING
          }
        }
      }
      attr {
        key: "summarize"
        value {
          i: 3
        }
      }
    }
    node {
      name: "pad_to_bounding_box_1/GreaterEqual_1"
      op: "GreaterEqual"
      input: "add_2"
      input: "pad_to_bounding_box_1/unstack:1"
      attr {
        key: "T"
        value {
          type: DT_INT32
        }
      }
      attr {
        key: "_output_shapes"
        value {
          list {
            shape {
            }
          }
        }
      }
    }
    node {
      name: "pad_to_bounding_box_1/Assert_2/Const"
      op: "Const"
      attr {
        key: "_output_shapes"
        value {
          list {
            shape {
            }
          }
        }
      }
      attr {
        key: "dtype"
        value {
          type: DT_STRING
        }
      }
      attr {
        key: "value"
        value {
          tensor {
            dtype: DT_STRING
            tensor_shape {
            }
            string_val: "target_height must be >= height"
          }
        }
      }
    }
    node {
      name: "pad_to_bounding_box_1/Assert_2/Assert/data_0"
      op: "Const"
      attr {
        key: "_output_shapes"
        value {
          list {
            shape {
            }
          }
        }
      }
      attr {
        key: "dtype"
        value {
          type: DT_STRING
        }
      }
      attr {
        key: "value"
        value {
          tensor {
            dtype: DT_STRING
            tensor_shape {
            }
            string_val: "target_height must be >= height"
          }
        }
      }
    }
    node {
      name: "pad_to_bounding_box_1/Assert_2/Assert"
      op: "Assert"
      input: "pad_to_bounding_box_1/GreaterEqual_1"
      input: "pad_to_bounding_box_1/Assert_2/Assert/data_0"
      attr {
        key: "T"
        value {
          list {
            type: DT_STRING
          }
        }
      }
      attr {
        key: "summarize"
        value {
          i: 3
        }
      }
    }
    node {
      name: "pad_to_bounding_box_1/sub_1/y"
      op: "Const"
      input: "^pad_to_bounding_box_1/Assert_1/Assert"
      attr {
        key: "_output_shapes"
        value {
          list {
            shape {
            }
          }
        }
      }
      attr {
        key: "dtype"
        value {
          type: DT_INT32
        }
      }
      attr {
        key: "value"
        value {
          tensor {
            dtype: DT_INT32
            tensor_shape {
            }
            int_val: 0
          }
        }
      }
    }
    node {
      name: "pad_to_bounding_box_1/sub_1"
      op: "Sub"
      input: "add_3"
      input: "pad_to_bounding_box_1/sub_1/y"
      attr {
        key: "T"
        value {
          type: DT_INT32
        }
      }
      attr {
        key: "_output_shapes"
        value {
          list {
            shape {
            }
          }
        }
      }
    }
    node {
      name: "pad_to_bounding_box_1/sub_2"
      op: "Sub"
      input: "pad_to_bounding_box_1/sub_1"
      input: "pad_to_bounding_box_1/unstack:2"
      attr {
        key: "T"
        value {
          type: DT_INT32
        }
      }
      attr {
        key: "_output_shapes"
        value {
          list {
            shape {
            }
          }
        }
      }
    }
    node {
      name: "pad_to_bounding_box_1/sub_3/y"
      op: "Const"
      input: "^pad_to_bounding_box_1/Assert_2/Assert"
      attr {
        key: "_output_shapes"
        value {
          list {
            shape {
            }
          }
        }
      }
      attr {
        key: "dtype"
        value {
          type: DT_INT32
        }
      }
      attr {
        key: "value"
        value {
          tensor {
            dtype: DT_INT32
            tensor_shape {
            }
            int_val: 0
          }
        }
      }
    }
    node {
      name: "pad_to_bounding_box_1/sub_3"
      op: "Sub"
      input: "add_2"
      input: "pad_to_bounding_box_1/sub_3/y"
      attr {
        key: "T"
        value {
          type: DT_INT32
        }
      }
      attr {
        key: "_output_shapes"
        value {
          list {
            shape {
            }
          }
        }
      }
    }
    node {
      name: "pad_to_bounding_box_1/sub_4"
      op: "Sub"
      input: "pad_to_bounding_box_1/sub_3"
      input: "pad_to_bounding_box_1/unstack:1"
      attr {
        key: "T"
        value {
          type: DT_INT32
        }
      }
      attr {
        key: "_output_shapes"
        value {
          list {
            shape {
            }
          }
        }
      }
    }
    node {
      name: "pad_to_bounding_box_1/GreaterEqual_2/y"
      op: "Const"
      attr {
        key: "_output_shapes"
        value {
          list {
            shape {
            }
          }
        }
      }
      attr {
        key: "dtype"
        value {
          type: DT_INT32
        }
      }
      attr {
        key: "value"
        value {
          tensor {
            dtype: DT_INT32
            tensor_shape {
            }
            int_val: 0
          }
        }
      }
    }
    node {
      name: "pad_to_bounding_box_1/GreaterEqual_2"
      op: "GreaterEqual"
      input: "pad_to_bounding_box_1/sub_2"
      input: "pad_to_bounding_box_1/GreaterEqual_2/y"
      attr {
        key: "T"
        value {
          type: DT_INT32
        }
      }
      attr {
        key: "_output_shapes"
        value {
          list {
            shape {
            }
          }
        }
      }
    }
    node {
      name: "pad_to_bounding_box_1/GreaterEqual_3/y"
      op: "Const"
      attr {
        key: "_output_shapes"
        value {
          list {
            shape {
            }
          }
        }
      }
      attr {
        key: "dtype"
        value {
          type: DT_INT32
        }
      }
      attr {
        key: "value"
        value {
          tensor {
            dtype: DT_INT32
            tensor_shape {
            }
            int_val: 0
          }
        }
      }
    }
    node {
      name: "pad_to_bounding_box_1/GreaterEqual_3"
      op: "GreaterEqual"
      input: "pad_to_bounding_box_1/sub_4"
      input: "pad_to_bounding_box_1/GreaterEqual_3/y"
      attr {
        key: "T"
        value {
          type: DT_INT32
        }
      }
      attr {
        key: "_output_shapes"
        value {
          list {
            shape {
            }
          }
        }
      }
    }
    node {
      name: "pad_to_bounding_box_1/LogicalAnd"
      op: "LogicalAnd"
      input: "pad_to_bounding_box_1/GreaterEqual_2"
      input: "pad_to_bounding_box_1/GreaterEqual_3"
      attr {
        key: "_output_shapes"
        value {
          list {
            shape {
            }
          }
        }
      }
    }
    node {
      name: "pad_to_bounding_box_1/Assert_3/Const"
      op: "Const"
      attr {
        key: "_output_shapes"
        value {
          list {
            shape {
            }
          }
        }
      }
      attr {
        key: "dtype"
        value {
          type: DT_STRING
        }
      }
      attr {
        key: "value"
        value {
          tensor {
            dtype: DT_STRING
            tensor_shape {
            }
            string_val: "target size not possible with the given target offsets"
          }
        }
      }
    }
    node {
      name: "pad_to_bounding_box_1/Assert_3/Assert/data_0"
      op: "Const"
      attr {
        key: "_output_shapes"
        value {
          list {
            shape {
            }
          }
        }
      }
      attr {
        key: "dtype"
        value {
          type: DT_STRING
        }
      }
      attr {
        key: "value"
        value {
          tensor {
            dtype: DT_STRING
            tensor_shape {
            }
            string_val: "target size not possible with the given target offsets"
          }
        }
      }
    }
    node {
      name: "pad_to_bounding_box_1/Assert_3/Assert"
      op: "Assert"
      input: "pad_to_bounding_box_1/LogicalAnd"
      input: "pad_to_bounding_box_1/Assert_3/Assert/data_0"
      attr {
        key: "T"
        value {
          list {
            type: DT_STRING
          }
        }
      }
      attr {
        key: "summarize"
        value {
          i: 3
        }
      }
    }
    node {
      name: "pad_to_bounding_box_1/stack"
      op: "Const"
      attr {
        key: "_output_shapes"
        value {
          list {
            shape {
              dim {
                size: 2
              }
            }
          }
        }
      }
      attr {
        key: "dtype"
        value {
          type: DT_INT32
        }
      }
      attr {
        key: "value"
        value {
          tensor {
            dtype: DT_INT32
            tensor_shape {
              dim {
                size: 2
              }
            }
            tensor_content: "\000\000\000\000\000\000\000\000"
          }
        }
      }
    }
    node {
      name: "pad_to_bounding_box_1/stack_1/0"
      op: "Const"
      attr {
        key: "_output_shapes"
        value {
          list {
            shape {
            }
          }
        }
      }
      attr {
        key: "dtype"
        value {
          type: DT_INT32
        }
      }
      attr {
        key: "value"
        value {
          tensor {
            dtype: DT_INT32
            tensor_shape {
            }
            int_val: 0
          }
        }
      }
    }
    node {
      name: "pad_to_bounding_box_1/stack_1"
      op: "Pack"
      input: "pad_to_bounding_box_1/stack_1/0"
      input: "pad_to_bounding_box_1/sub_4"
      attr {
        key: "N"
        value {
          i: 2
        }
      }
      attr {
        key: "T"
        value {
          type: DT_INT32
        }
      }
      attr {
        key: "_output_shapes"
        value {
          list {
            shape {
              dim {
                size: 2
              }
            }
          }
        }
      }
      attr {
        key: "axis"
        value {
          i: 0
        }
      }
    }
    node {
      name: "pad_to_bounding_box_1/stack_2/0"
      op: "Const"
      attr {
        key: "_output_shapes"
        value {
          list {
            shape {
            }
          }
        }
      }
      attr {
        key: "dtype"
        value {
          type: DT_INT32
        }
      }
      attr {
        key: "value"
        value {
          tensor {
            dtype: DT_INT32
            tensor_shape {
            }
            int_val: 0
          }
        }
      }
    }
    node {
      name: "pad_to_bounding_box_1/stack_2"
      op: "Pack"
      input: "pad_to_bounding_box_1/stack_2/0"
      input: "pad_to_bounding_box_1/sub_2"
      attr {
        key: "N"
        value {
          i: 2
        }
      }
      attr {
        key: "T"
        value {
          type: DT_INT32
        }
      }
      attr {
        key: "_output_shapes"
        value {
          list {
            shape {
              dim {
                size: 2
              }
            }
          }
        }
      }
      attr {
        key: "axis"
        value {
          i: 0
        }
      }
    }
    node {
      name: "pad_to_bounding_box_1/stack_3"
      op: "Const"
      attr {
        key: "_output_shapes"
        value {
          list {
            shape {
              dim {
                size: 2
              }
            }
          }
        }
      }
      attr {
        key: "dtype"
        value {
          type: DT_INT32
        }
      }
      attr {
        key: "value"
        value {
          tensor {
            dtype: DT_INT32
            tensor_shape {
              dim {
                size: 2
              }
            }
            tensor_content: "\000\000\000\000\000\000\000\000"
          }
        }
      }
    }
    node {
      name: "pad_to_bounding_box_1/stack_4"
      op: "Pack"
      input: "pad_to_bounding_box_1/stack"
      input: "pad_to_bounding_box_1/stack_1"
      input: "pad_to_bounding_box_1/stack_2"
      input: "pad_to_bounding_box_1/stack_3"
      input: "^pad_to_bounding_box_1/Assert_3/Assert"
      attr {
        key: "N"
        value {
          i: 4
        }
      }
      attr {
        key: "T"
        value {
          type: DT_INT32
        }
      }
      attr {
        key: "_output_shapes"
        value {
          list {
            shape {
              dim {
                size: 4
              }
              dim {
                size: 2
              }
            }
          }
        }
      }
      attr {
        key: "axis"
        value {
          i: 0
        }
      }
    }
    node {
      name: "pad_to_bounding_box_1/Pad"
      op: "Pad"
      input: "pad_to_bounding_box_1/ExpandDims"
      input: "pad_to_bounding_box_1/stack_4"
      attr {
        key: "T"
        value {
          type: DT_FLOAT
        }
      }
      attr {
        key: "Tpaddings"
        value {
          type: DT_INT32
        }
      }
      attr {
        key: "_output_shapes"
        value {
          list {
            shape {
              dim {
                size: 1
              }
              dim {
                size: -1
              }
              dim {
                size: -1
              }
              dim {
                size: 3
              }
            }
          }
        }
      }
    }
    node {
      name: "pad_to_bounding_box_1/Squeeze"
      op: "Squeeze"
      input: "pad_to_bounding_box_1/Pad"
      attr {
        key: "T"
        value {
          type: DT_FLOAT
        }
      }
      attr {
        key: "_output_shapes"
        value {
          list {
            shape {
              dim {
                size: -1
              }
              dim {
                size: -1
              }
              dim {
                size: 3
              }
            }
          }
        }
      }
      attr {
        key: "squeeze_dims"
        value {
          list {
            i: 0
          }
        }
      }
    }
    node {
      name: "pad_to_bounding_box_1/add"
      op: "Add"
      input: "pad_to_bounding_box_1/Squeeze"
      input: "Reshape_3"
      attr {
        key: "T"
        value {
          type: DT_FLOAT
        }
      }
      attr {
        key: "_output_shapes"
        value {
          list {
            shape {
              dim {
                size: 513
              }
              dim {
                size: 513
              }
              dim {
                size: 3
              }
            }
          }
        }
      }
    }
    node {
      name: "strided_slice_8/stack"
      op: "Const"
      attr {
        key: "_output_shapes"
        value {
          list {
            shape {
              dim {
                size: 1
              }
            }
          }
        }
      }
      attr {
        key: "dtype"
        value {
          type: DT_INT32
        }
      }
      attr {
        key: "value"
        value {
          tensor {
            dtype: DT_INT32
            tensor_shape {
              dim {
                size: 1
              }
            }
            int_val: 2
          }
        }
      }
    }
    node {
      name: "strided_slice_8/stack_1"
      op: "Const"
      attr {
        key: "_output_shapes"
        value {
          list {
            shape {
              dim {
                size: 1
              }
            }
          }
        }
      }
      attr {
        key: "dtype"
        value {
          type: DT_INT32
        }
      }
      attr {
        key: "value"
        value {
          tensor {
            dtype: DT_INT32
            tensor_shape {
              dim {
                size: 1
              }
            }
            int_val: 3
          }
        }
      }
    }
    node {
      name: "strided_slice_8/stack_2"
      op: "Const"
      attr {
        key: "_output_shapes"
        value {
          list {
            shape {
              dim {
                size: 1
              }
            }
          }
        }
      }
      attr {
        key: "dtype"
        value {
          type: DT_INT32
        }
      }
      attr {
        key: "value"
        value {
          tensor {
            dtype: DT_INT32
            tensor_shape {
              dim {
                size: 1
              }
            }
            int_val: 1
          }
        }
      }
    }
    node {
      name: "strided_slice_8"
      op: "StridedSlice"
      input: "height"
      input: "strided_slice_8/stack"
      input: "strided_slice_8/stack_1"
      input: "strided_slice_8/stack_2"
      attr {
        key: "Index"
        value {
          type: DT_INT32
        }
      }
      attr {
        key: "T"
        value {
          type: DT_INT32
        }
      }
      attr {
        key: "_output_shapes"
        value {
          list {
            shape {
            }
          }
        }
      }
      attr {
        key: "begin_mask"
        value {
          i: 0
        }
      }
      attr {
        key: "ellipsis_mask"
        value {
          i: 0
        }
      }
      attr {
        key: "end_mask"
        value {
          i: 0
        }
      }
      attr {
        key: "new_axis_mask"
        value {
          i: 0
        }
      }
      attr {
        key: "shrink_axis_mask"
        value {
          i: 1
        }
      }
    }
    node {
      name: "strided_slice_9/stack"
      op: "Const"
      attr {
        key: "_output_shapes"
        value {
          list {
            shape {
              dim {
                size: 1
              }
            }
          }
        }
      }
      attr {
        key: "dtype"
        value {
          type: DT_INT32
        }
      }
      attr {
        key: "value"
        value {
          tensor {
            dtype: DT_INT32
            tensor_shape {
              dim {
                size: 1
              }
            }
            int_val: 2
          }
        }
      }
    }
    node {
      name: "strided_slice_9/stack_1"
      op: "Const"
      attr {
        key: "_output_shapes"
        value {
          list {
            shape {
              dim {
                size: 1
              }
            }
          }
        }
      }
      attr {
        key: "dtype"
        value {
          type: DT_INT32
        }
      }
      attr {
        key: "value"
        value {
          tensor {
            dtype: DT_INT32
            tensor_shape {
              dim {
                size: 1
              }
            }
            int_val: 3
          }
        }
      }
    }
    node {
      name: "strided_slice_9/stack_2"
      op: "Const"
      attr {
        key: "_output_shapes"
        value {
          list {
            shape {
              dim {
                size: 1
              }
            }
          }
        }
      }
      attr {
        key: "dtype"
        value {
          type: DT_INT32
        }
      }
      attr {
        key: "value"
        value {
          tensor {
            dtype: DT_INT32
            tensor_shape {
              dim {
                size: 1
              }
            }
            int_val: 1
          }
        }
      }
    }
    node {
      name: "strided_slice_9"
      op: "StridedSlice"
      input: "width"
      input: "strided_slice_9/stack"
      input: "strided_slice_9/stack_1"
      input: "strided_slice_9/stack_2"
      attr {
        key: "Index"
        value {
          type: DT_INT32
        }
      }
      attr {
        key: "T"
        value {
          type: DT_INT32
        }
      }
      attr {
        key: "_output_shapes"
        value {
          list {
            shape {
            }
          }
        }
      }
      attr {
        key: "begin_mask"
        value {
          i: 0
        }
      }
      attr {
        key: "ellipsis_mask"
        value {
          i: 0
        }
      }
      attr {
        key: "end_mask"
        value {
          i: 0
        }
      }
      attr {
        key: "new_axis_mask"
        value {
          i: 0
        }
      }
      attr {
        key: "shrink_axis_mask"
        value {
          i: 1
        }
      }
    }
    node {
      name: "Reshape_4/shape/2"
      op: "Const"
      attr {
        key: "_output_shapes"
        value {
          list {
            shape {
            }
          }
        }
      }
      attr {
        key: "dtype"
        value {
          type: DT_INT32
        }
      }
      attr {
        key: "value"
        value {
          tensor {
            dtype: DT_INT32
            tensor_shape {
            }
            int_val: 3
          }
        }
      }
    }
    node {
      name: "Reshape_4/shape"
      op: "Pack"
      input: "strided_slice_8"
      input: "strided_slice_9"
      input: "Reshape_4/shape/2"
      attr {
        key: "N"
        value {
          i: 3
        }
      }
      attr {
        key: "T"
        value {
          type: DT_INT32
        }
      }
      attr {
        key: "_output_shapes"
        value {
          list {
            shape {
              dim {
                size: 3
              }
            }
          }
        }
      }
      attr {
        key: "axis"
        value {
          i: 0
        }
      }
    }
    node {
      name: "Reshape_4"
      op: "Reshape"
      input: "split:2"
      input: "Reshape_4/shape"
      attr {
        key: "T"
        value {
          type: DT_UINT8
        }
      }
      attr {
        key: "Tshape"
        value {
          type: DT_INT32
        }
      }
      attr {
        key: "_output_shapes"
        value {
          list {
            shape {
              dim {
                size: -1
              }
              dim {
                size: -1
              }
              dim {
                size: 3
              }
            }
          }
        }
      }
    }
    node {
      name: "Cast_3"
      op: "Cast"
      input: "Reshape_4"
      attr {
        key: "DstT"
        value {
          type: DT_FLOAT
        }
      }
      attr {
        key: "SrcT"
        value {
          type: DT_UINT8
        }
      }
      attr {
        key: "Truncate"
        value {
          b: false
        }
      }
      attr {
        key: "_output_shapes"
        value {
          list {
            shape {
              dim {
                size: -1
              }
              dim {
                size: -1
              }
              dim {
                size: 3
              }
            }
          }
        }
      }
    }
    node {
      name: "Shape_2"
      op: "Shape"
      input: "Cast_3"
      attr {
        key: "T"
        value {
          type: DT_FLOAT
        }
      }
      attr {
        key: "_output_shapes"
        value {
          list {
            shape {
              dim {
                size: 3
              }
            }
          }
        }
      }
      attr {
        key: "out_type"
        value {
          type: DT_INT32
        }
      }
    }
    node {
      name: "strided_slice_10/stack"
      op: "Const"
      attr {
        key: "_output_shapes"
        value {
          list {
            shape {
              dim {
                size: 1
              }
            }
          }
        }
      }
      attr {
        key: "dtype"
        value {
          type: DT_INT32
        }
      }
      attr {
        key: "value"
        value {
          tensor {
            dtype: DT_INT32
            tensor_shape {
              dim {
                size: 1
              }
            }
            int_val: 0
          }
        }
      }
    }
    node {
      name: "strided_slice_10/stack_1"
      op: "Const"
      attr {
        key: "_output_shapes"
        value {
          list {
            shape {
              dim {
                size: 1
              }
            }
          }
        }
      }
      attr {
        key: "dtype"
        value {
          type: DT_INT32
        }
      }
      attr {
        key: "value"
        value {
          tensor {
            dtype: DT_INT32
            tensor_shape {
              dim {
                size: 1
              }
            }
            int_val: 1
          }
        }
      }
    }
    node {
      name: "strided_slice_10/stack_2"
      op: "Const"
      attr {
        key: "_output_shapes"
        value {
          list {
            shape {
              dim {
                size: 1
              }
            }
          }
        }
      }
      attr {
        key: "dtype"
        value {
          type: DT_INT32
        }
      }
      attr {
        key: "value"
        value {
          tensor {
            dtype: DT_INT32
            tensor_shape {
              dim {
                size: 1
              }
            }
            int_val: 1
          }
        }
      }
    }
    node {
      name: "strided_slice_10"
      op: "StridedSlice"
      input: "Shape_2"
      input: "strided_slice_10/stack"
      input: "strided_slice_10/stack_1"
      input: "strided_slice_10/stack_2"
      attr {
        key: "Index"
        value {
          type: DT_INT32
        }
      }
      attr {
        key: "T"
        value {
          type: DT_INT32
        }
      }
      attr {
        key: "_output_shapes"
        value {
          list {
            shape {
            }
          }
        }
      }
      attr {
        key: "begin_mask"
        value {
          i: 0
        }
      }
      attr {
        key: "ellipsis_mask"
        value {
          i: 0
        }
      }
      attr {
        key: "end_mask"
        value {
          i: 0
        }
      }
      attr {
        key: "new_axis_mask"
        value {
          i: 0
        }
      }
      attr {
        key: "shrink_axis_mask"
        value {
          i: 1
        }
      }
    }
    node {
      name: "strided_slice_11/stack"
      op: "Const"
      attr {
        key: "_output_shapes"
        value {
          list {
            shape {
              dim {
                size: 1
              }
            }
          }
        }
      }
      attr {
        key: "dtype"
        value {
          type: DT_INT32
        }
      }
      attr {
        key: "value"
        value {
          tensor {
            dtype: DT_INT32
            tensor_shape {
              dim {
                size: 1
              }
            }
            int_val: 1
          }
        }
      }
    }
    node {
      name: "strided_slice_11/stack_1"
      op: "Const"
      attr {
        key: "_output_shapes"
        value {
          list {
            shape {
              dim {
                size: 1
              }
            }
          }
        }
      }
      attr {
        key: "dtype"
        value {
          type: DT_INT32
        }
      }
      attr {
        key: "value"
        value {
          tensor {
            dtype: DT_INT32
            tensor_shape {
              dim {
                size: 1
              }
            }
            int_val: 2
          }
        }
      }
    }
    node {
      name: "strided_slice_11/stack_2"
      op: "Const"
      attr {
        key: "_output_shapes"
        value {
          list {
            shape {
              dim {
                size: 1
              }
            }
          }
        }
      }
      attr {
        key: "dtype"
        value {
          type: DT_INT32
        }
      }
      attr {
        key: "value"
        value {
          tensor {
            dtype: DT_INT32
            tensor_shape {
              dim {
                size: 1
              }
            }
            int_val: 1
          }
        }
      }
    }
    node {
      name: "strided_slice_11"
      op: "StridedSlice"
      input: "Shape_2"
      input: "strided_slice_11/stack"
      input: "strided_slice_11/stack_1"
      input: "strided_slice_11/stack_2"
      attr {
        key: "Index"
        value {
          type: DT_INT32
        }
      }
      attr {
        key: "T"
        value {
          type: DT_INT32
        }
      }
      attr {
        key: "_output_shapes"
        value {
          list {
            shape {
            }
          }
        }
      }
      attr {
        key: "begin_mask"
        value {
          i: 0
        }
      }
      attr {
        key: "ellipsis_mask"
        value {
          i: 0
        }
      }
      attr {
        key: "end_mask"
        value {
          i: 0
        }
      }
      attr {
        key: "new_axis_mask"
        value {
          i: 0
        }
      }
      attr {
        key: "shrink_axis_mask"
        value {
          i: 1
        }
      }
    }
    node {
      name: "sub_4/x"
      op: "Const"
      attr {
        key: "_output_shapes"
        value {
          list {
            shape {
            }
          }
        }
      }
      attr {
        key: "dtype"
        value {
          type: DT_INT32
        }
      }
      attr {
        key: "value"
        value {
          tensor {
            dtype: DT_INT32
            tensor_shape {
            }
            int_val: 513
          }
        }
      }
    }
    node {
      name: "sub_4"
      op: "Sub"
      input: "sub_4/x"
      input: "strided_slice_10"
      attr {
        key: "T"
        value {
          type: DT_INT32
        }
      }
      attr {
        key: "_output_shapes"
        value {
          list {
            shape {
            }
          }
        }
      }
    }
    node {
      name: "Maximum_4/y"
      op: "Const"
      attr {
        key: "_output_shapes"
        value {
          list {
            shape {
            }
          }
        }
      }
      attr {
        key: "dtype"
        value {
          type: DT_INT32
        }
      }
      attr {
        key: "value"
        value {
          tensor {
            dtype: DT_INT32
            tensor_shape {
            }
            int_val: 0
          }
        }
      }
    }
    node {
      name: "Maximum_4"
      op: "Maximum"
      input: "sub_4"
      input: "Maximum_4/y"
      attr {
        key: "T"
        value {
          type: DT_INT32
        }
      }
      attr {
        key: "_output_shapes"
        value {
          list {
            shape {
            }
          }
        }
      }
    }
    node {
      name: "add_4"
      op: "Add"
      input: "strided_slice_10"
      input: "Maximum_4"
      attr {
        key: "T"
        value {
          type: DT_INT32
        }
      }
      attr {
        key: "_output_shapes"
        value {
          list {
            shape {
            }
          }
        }
      }
    }
    node {
      name: "sub_5/x"
      op: "Const"
      attr {
        key: "_output_shapes"
        value {
          list {
            shape {
            }
          }
        }
      }
      attr {
        key: "dtype"
        value {
          type: DT_INT32
        }
      }
      attr {
        key: "value"
        value {
          tensor {
            dtype: DT_INT32
            tensor_shape {
            }
            int_val: 513
          }
        }
      }
    }
    node {
      name: "sub_5"
      op: "Sub"
      input: "sub_5/x"
      input: "strided_slice_11"
      attr {
        key: "T"
        value {
          type: DT_INT32
        }
      }
      attr {
        key: "_output_shapes"
        value {
          list {
            shape {
            }
          }
        }
      }
    }
    node {
      name: "Maximum_5/y"
      op: "Const"
      attr {
        key: "_output_shapes"
        value {
          list {
            shape {
            }
          }
        }
      }
      attr {
        key: "dtype"
        value {
          type: DT_INT32
        }
      }
      attr {
        key: "value"
        value {
          tensor {
            dtype: DT_INT32
            tensor_shape {
            }
            int_val: 0
          }
        }
      }
    }
    node {
      name: "Maximum_5"
      op: "Maximum"
      input: "sub_5"
      input: "Maximum_5/y"
      attr {
        key: "T"
        value {
          type: DT_INT32
        }
      }
      attr {
        key: "_output_shapes"
        value {
          list {
            shape {
            }
          }
        }
      }
    }
    node {
      name: "add_5"
      op: "Add"
      input: "strided_slice_11"
      input: "Maximum_5"
      attr {
        key: "T"
        value {
          type: DT_INT32
        }
      }
      attr {
        key: "_output_shapes"
        value {
          list {
            shape {
            }
          }
        }
      }
    }
    node {
      name: "Reshape_5/tensor"
      op: "Const"
      attr {
        key: "_output_shapes"
        value {
          list {
            shape {
              dim {
                size: 3
              }
            }
          }
        }
      }
      attr {
        key: "dtype"
        value {
          type: DT_FLOAT
        }
      }
      attr {
        key: "value"
        value {
          tensor {
            dtype: DT_FLOAT
            tensor_shape {
              dim {
                size: 3
              }
            }
            tensor_content: "\000\000\377B\000\000\377B\000\000\377B"
          }
        }
      }
    }
    node {
      name: "Reshape_5/shape"
      op: "Const"
      attr {
        key: "_output_shapes"
        value {
          list {
            shape {
              dim {
                size: 3
              }
            }
          }
        }
      }
      attr {
        key: "dtype"
        value {
          type: DT_INT32
        }
      }
      attr {
        key: "value"
        value {
          tensor {
            dtype: DT_INT32
            tensor_shape {
              dim {
                size: 3
              }
            }
            tensor_content: "\001\000\000\000\001\000\000\000\003\000\000\000"
          }
        }
      }
    }
    node {
      name: "Reshape_5"
      op: "Reshape"
      input: "Reshape_5/tensor"
      input: "Reshape_5/shape"
      attr {
        key: "T"
        value {
          type: DT_FLOAT
        }
      }
      attr {
        key: "Tshape"
        value {
          type: DT_INT32
        }
      }
      attr {
        key: "_output_shapes"
        value {
          list {
            shape {
              dim {
                size: 1
              }
              dim {
                size: 1
              }
              dim {
                size: 3
              }
            }
          }
        }
      }
    }
    node {
      name: "pad_to_bounding_box_2/Rank"
      op: "Const"
      attr {
        key: "_output_shapes"
        value {
          list {
            shape {
            }
          }
        }
      }
      attr {
        key: "dtype"
        value {
          type: DT_INT32
        }
      }
      attr {
        key: "value"
        value {
          tensor {
            dtype: DT_INT32
            tensor_shape {
            }
            int_val: 3
          }
        }
      }
    }
    node {
      name: "pad_to_bounding_box_2/Equal/y"
      op: "Const"
      attr {
        key: "_output_shapes"
        value {
          list {
            shape {
            }
          }
        }
      }
      attr {
        key: "dtype"
        value {
          type: DT_INT32
        }
      }
      attr {
        key: "value"
        value {
          tensor {
            dtype: DT_INT32
            tensor_shape {
            }
            int_val: 3
          }
        }
      }
    }
    node {
      name: "pad_to_bounding_box_2/Equal"
      op: "Equal"
      input: "pad_to_bounding_box_2/Rank"
      input: "pad_to_bounding_box_2/Equal/y"
      attr {
        key: "T"
        value {
          type: DT_INT32
        }
      }
      attr {
        key: "_output_shapes"
        value {
          list {
            shape {
            }
          }
        }
      }
    }
    node {
      name: "pad_to_bounding_box_2/Rank_1"
      op: "Const"
      attr {
        key: "_output_shapes"
        value {
          list {
            shape {
            }
          }
        }
      }
      attr {
        key: "dtype"
        value {
          type: DT_INT32
        }
      }
      attr {
        key: "value"
        value {
          tensor {
            dtype: DT_INT32
            tensor_shape {
            }
            int_val: 3
          }
        }
      }
    }
    node {
      name: "pad_to_bounding_box_2/Equal_1/y"
      op: "Const"
      attr {
        key: "_output_shapes"
        value {
          list {
            shape {
            }
          }
        }
      }
      attr {
        key: "dtype"
        value {
          type: DT_INT32
        }
      }
      attr {
        key: "value"
        value {
          tensor {
            dtype: DT_INT32
            tensor_shape {
            }
            int_val: 4
          }
        }
      }
    }
    node {
      name: "pad_to_bounding_box_2/Equal_1"
      op: "Equal"
      input: "pad_to_bounding_box_2/Rank_1"
      input: "pad_to_bounding_box_2/Equal_1/y"
      attr {
        key: "T"
        value {
          type: DT_INT32
        }
      }
      attr {
        key: "_output_shapes"
…
        value: "\n-MobilenetV2/expanded_conv_6/project/weights:0\0222MobilenetV2/expanded_conv_6/project/weights/Assign\0322MobilenetV2/expanded_conv_6/project/weights/read:02JMobilenetV2/expanded_conv_6/project/weights/Initializer/truncated_normal:08\001"
        value: "\n5MobilenetV2/expanded_conv_6/project/BatchNorm/gamma:0\022:MobilenetV2/expanded_conv_6/project/BatchNorm/gamma/Assign\032:MobilenetV2/expanded_conv_6/project/BatchNorm/gamma/read:02FMobilenetV2/expanded_conv_6/project/BatchNorm/gamma/Initializer/ones:08\001"
        value: "\n4MobilenetV2/expanded_conv_6/project/BatchNorm/beta:0\0229MobilenetV2/expanded_conv_6/project/BatchNorm/beta/Assign\0329MobilenetV2/expanded_conv_6/project/BatchNorm/beta/read:02FMobilenetV2/expanded_conv_6/project/BatchNorm/beta/Initializer/zeros:08\001"
        value: "\n;MobilenetV2/expanded_conv_6/project/BatchNorm/moving_mean:0\022@MobilenetV2/expanded_conv_6/project/BatchNorm/moving_mean/Assign\032@MobilenetV2/expanded_conv_6/project/BatchNorm/moving_mean/read:02MMobilenetV2/expanded_conv_6/project/BatchNorm/moving_mean/Initializer/zeros:0@\003H\002"
        value: "\n?MobilenetV2/expanded_conv_6/project/BatchNorm/moving_variance:0\022DMobilenetV2/expanded_conv_6/project/BatchNorm/moving_variance/Assign\032DMobilenetV2/expanded_conv_6/project/BatchNorm/moving_variance/read:02PMobilenetV2/expanded_conv_6/project/BatchNorm/moving_variance/Initializer/ones:0@\003H\002"
        value: "\n,MobilenetV2/expanded_conv_7/expand/weights:0\0221MobilenetV2/expanded_conv_7/expand/weights/Assign\0321MobilenetV2/expanded_conv_7/expand/weights/read:02IMobilenetV2/expanded_conv_7/expand/weights/Initializer/truncated_normal:08\001"
        value: "\n4MobilenetV2/expanded_conv_7/expand/BatchNorm/gamma:0\0229MobilenetV2/expanded_conv_7/expand/BatchNorm/gamma/Assign\0329MobilenetV2/expanded_conv_7/expand/BatchNorm/gamma/read:02EMobilenetV2/expanded_conv_7/expand/BatchNorm/gamma/Initializer/ones:08\001"
        value: "\n3MobilenetV2/expanded_conv_7/expand/BatchNorm/beta:0\0228MobilenetV2/expanded_conv_7/expand/BatchNorm/beta/Assign\0328MobilenetV2/expanded_conv_7/expand/BatchNorm/beta/read:02EMobilenetV2/expanded_conv_7/expand/BatchNorm/beta/Initializer/zeros:08\001"
        value: "\n:MobilenetV2/expanded_conv_7/expand/BatchNorm/moving_mean:0\022?MobilenetV2/expanded_conv_7/expand/BatchNorm/moving_mean/Assign\032?MobilenetV2/expanded_conv_7/expand/BatchNorm/moving_mean/read:02LMobilenetV2/expanded_conv_7/expand/BatchNorm/moving_mean/Initializer/zeros:0@\003H\002"
        value: "\n>MobilenetV2/expanded_conv_7/expand/BatchNorm/moving_variance:0\022CMobilenetV2/expanded_conv_7/expand/BatchNorm/moving_variance/Assign\032CMobilenetV2/expanded_conv_7/expand/BatchNorm/moving_variance/read:02OMobilenetV2/expanded_conv_7/expand/BatchNorm/moving_variance/Initializer/ones:0@\003H\002"
        value: "\n9MobilenetV2/expanded_conv_7/depthwise/depthwise_weights:0\022>MobilenetV2/expanded_conv_7/depthwise/depthwise_weights/Assign\032>MobilenetV2/expanded_conv_7/depthwise/depthwise_weights/read:02VMobilenetV2/expanded_conv_7/depthwise/depthwise_weights/Initializer/truncated_normal:08\001"
        value: "\n7MobilenetV2/expanded_conv_7/depthwise/BatchNorm/gamma:0\022<MobilenetV2/expanded_conv_7/depthwise/BatchNorm/gamma/Assign\032<MobilenetV2/expanded_conv_7/depthwise/BatchNorm/gamma/read:02HMobilenetV2/expanded_conv_7/depthwise/BatchNorm/gamma/Initializer/ones:08\001"
        value: "\n6MobilenetV2/expanded_conv_7/depthwise/BatchNorm/beta:0\022;MobilenetV2/expanded_conv_7/depthwise/BatchNorm/beta/Assign\032;MobilenetV2/expanded_conv_7/depthwise/BatchNorm/beta/read:02HMobilenetV2/expanded_conv_7/depthwise/BatchNorm/beta/Initializer/zeros:08\001"
        value: "\n=MobilenetV2/expanded_conv_7/depthwise/BatchNorm/moving_mean:0\022BMobilenetV2/expanded_conv_7/depthwise/BatchNorm/moving_mean/Assign\032BMobilenetV2/expanded_conv_7/depthwise/BatchNorm/moving_mean/read:02OMobilenetV2/expanded_conv_7/depthwise/BatchNorm/moving_mean/Initializer/zeros:0@\003H\002"
        value: "\nAMobilenetV2/expanded_conv_7/depthwise/BatchNorm/moving_variance:0\022FMobilenetV2/expanded_conv_7/depthwise/BatchNorm/moving_variance/Assign\032FMobilenetV2/expanded_conv_7/depthwise/BatchNorm/moving_variance/read:02RMobilenetV2/expanded_conv_7/depthwise/BatchNorm/moving_variance/Initializer/ones:0@\003H\002"
        value: "\n-MobilenetV2/expanded_conv_7/project/weights:0\0222MobilenetV2/expanded_conv_7/project/weights/Assign\0322MobilenetV2/expanded_conv_7/project/weights/read:02JMobilenetV2/expanded_conv_7/project/weights/Initializer/truncated_normal:08\001"
        value: "\n5MobilenetV2/expanded_conv_7/project/BatchNorm/gamma:0\022:MobilenetV2/expanded_conv_7/project/BatchNorm/gamma/Assign\032:MobilenetV2/expanded_conv_7/project/BatchNorm/gamma/read:02FMobilenetV2/expanded_conv_7/project/BatchNorm/gamma/Initializer/ones:08\001"
        value: "\n4MobilenetV2/expanded_conv_7/project/BatchNorm/beta:0\0229MobilenetV2/expanded_conv_7/project/BatchNorm/beta/Assign\0329MobilenetV2/expanded_conv_7/project/BatchNorm/beta/read:02FMobilenetV2/expanded_conv_7/project/BatchNorm/beta/Initializer/zeros:08\001"
        value: "\n;MobilenetV2/expanded_conv_7/project/BatchNorm/moving_mean:0\022@MobilenetV2/expanded_conv_7/project/BatchNorm/moving_mean/Assign\032@MobilenetV2/expanded_conv_7/project/BatchNorm/moving_mean/read:02MMobilenetV2/expanded_conv_7/project/BatchNorm/moving_mean/Initializer/zeros:0@\003H\002"
        value: "\n?MobilenetV2/expanded_conv_7/project/BatchNorm/moving_variance:0\022DMobilenetV2/expanded_conv_7/project/BatchNorm/moving_variance/Assign\032DMobilenetV2/expanded_conv_7/project/BatchNorm/moving_variance/read:02PMobilenetV2/expanded_conv_7/project/BatchNorm/moving_variance/Initializer/ones:0@\003H\002"
        value: "\n,MobilenetV2/expanded_conv_8/expand/weights:0\0221MobilenetV2/expanded_conv_8/expand/weights/Assign\0321MobilenetV2/expanded_conv_8/expand/weights/read:02IMobilenetV2/expanded_conv_8/expand/weights/Initializer/truncated_normal:08\001"
        value: "\n4MobilenetV2/expanded_conv_8/expand/BatchNorm/gamma:0\0229MobilenetV2/expanded_conv_8/expand/BatchNorm/gamma/Assign\0329MobilenetV2/expanded_conv_8/expand/BatchNorm/gamma/read:02EMobilenetV2/expanded_conv_8/expand/BatchNorm/gamma/Initializer/ones:08\001"
        value: "\n3MobilenetV2/expanded_conv_8/expand/BatchNorm/beta:0\0228MobilenetV2/expanded_conv_8/expand/BatchNorm/beta/Assign\0328MobilenetV2/expanded_conv_8/expand/BatchNorm/beta/read:02EMobilenetV2/expanded_conv_8/expand/BatchNorm/beta/Initializer/zeros:08\001"
        value: "\n:MobilenetV2/expanded_conv_8/expand/BatchNorm/moving_mean:0\022?MobilenetV2/expanded_conv_8/expand/BatchNorm/moving_mean/Assign\032?MobilenetV2/expanded_conv_8/expand/BatchNorm/moving_mean/read:02LMobilenetV2/expanded_conv_8/expand/BatchNorm/moving_mean/Initializer/zeros:0@\003H\002"
        value: "\n>MobilenetV2/expanded_conv_8/expand/BatchNorm/moving_variance:0\022CMobilenetV2/expanded_conv_8/expand/BatchNorm/moving_variance/Assign\032CMobilenetV2/expanded_conv_8/expand/BatchNorm/moving_variance/read:02OMobilenetV2/expanded_conv_8/expand/BatchNorm/moving_variance/Initializer/ones:0@\003H\002"
        value: "\n9MobilenetV2/expanded_conv_8/depthwise/depthwise_weights:0\022>MobilenetV2/expanded_conv_8/depthwise/depthwise_weights/Assign\032>MobilenetV2/expanded_conv_8/depthwise/depthwise_weights/read:02VMobilenetV2/expanded_conv_8/depthwise/depthwise_weights/Initializer/truncated_normal:08\001"
        value: "\n7MobilenetV2/expanded_conv_8/depthwise/BatchNorm/gamma:0\022<MobilenetV2/expanded_conv_8/depthwise/BatchNorm/gamma/Assign\032<MobilenetV2/expanded_conv_8/depthwise/BatchNorm/gamma/read:02HMobilenetV2/expanded_conv_8/depthwise/BatchNorm/gamma/Initializer/ones:08\001"
        value: "\n6MobilenetV2/expanded_conv_8/depthwise/BatchNorm/beta:0\022;MobilenetV2/expanded_conv_8/depthwise/BatchNorm/beta/Assign\032;MobilenetV2/expanded_conv_8/depthwise/BatchNorm/beta/read:02HMobilenetV2/expanded_conv_8/depthwise/BatchNorm/beta/Initializer/zeros:08\001"
        value: "\n=MobilenetV2/expanded_conv_8/depthwise/BatchNorm/moving_mean:0\022BMobilenetV2/expanded_conv_8/depthwise/BatchNorm/moving_mean/Assign\032BMobilenetV2/expanded_conv_8/depthwise/BatchNorm/moving_mean/read:02OMobilenetV2/expanded_conv_8/depthwise/BatchNorm/moving_mean/Initializer/zeros:0@\003H\002"
        value: "\nAMobilenetV2/expanded_conv_8/depthwise/BatchNorm/moving_variance:0\022FMobilenetV2/expanded_conv_8/depthwise/BatchNorm/moving_variance/Assign\032FMobilenetV2/expanded_conv_8/depthwise/BatchNorm/moving_variance/read:02RMobilenetV2/expanded_conv_8/depthwise/BatchNorm/moving_variance/Initializer/ones:0@\003H\002"
        value: "\n-MobilenetV2/expanded_conv_8/project/weights:0\0222MobilenetV2/expanded_conv_8/project/weights/Assign\0322MobilenetV2/expanded_conv_8/project/weights/read:02JMobilenetV2/expanded_conv_8/project/weights/Initializer/truncated_normal:08\001"
        value: "\n5MobilenetV2/expanded_conv_8/project/BatchNorm/gamma:0\022:MobilenetV2/expanded_conv_8/project/BatchNorm/gamma/Assign\032:MobilenetV2/expanded_conv_8/project/BatchNorm/gamma/read:02FMobilenetV2/expanded_conv_8/project/BatchNorm/gamma/Initializer/ones:08\001"
        value: "\n4MobilenetV2/expanded_conv_8/project/BatchNorm/beta:0\0229MobilenetV2/expanded_conv_8/project/BatchNorm/beta/Assign\0329MobilenetV2/expanded_conv_8/project/BatchNorm/beta/read:02FMobilenetV2/expanded_conv_8/project/BatchNorm/beta/Initializer/zeros:08\001"
        value: "\n;MobilenetV2/expanded_conv_8/project/BatchNorm/moving_mean:0\022@MobilenetV2/expanded_conv_8/project/BatchNorm/moving_mean/Assign\032@MobilenetV2/expanded_conv_8/project/BatchNorm/moving_mean/read:02MMobilenetV2/expanded_conv_8/project/BatchNorm/moving_mean/Initializer/zeros:0@\003H\002"
        value: "\n?MobilenetV2/expanded_conv_8/project/BatchNorm/moving_variance:0\022DMobilenetV2/expanded_conv_8/project/BatchNorm/moving_variance/Assign\032DMobilenetV2/expanded_conv_8/project/BatchNorm/moving_variance/read:02PMobilenetV2/expanded_conv_8/project/BatchNorm/moving_variance/Initializer/ones:0@\003H\002"
        value: "\n,MobilenetV2/expanded_conv_9/expand/weights:0\0221MobilenetV2/expanded_conv_9/expand/weights/Assign\0321MobilenetV2/expanded_conv_9/expand/weights/read:02IMobilenetV2/expanded_conv_9/expand/weights/Initializer/truncated_normal:08\001"
        value: "\n4MobilenetV2/expanded_conv_9/expand/BatchNorm/gamma:0\0229MobilenetV2/expanded_conv_9/expand/BatchNorm/gamma/Assign\0329MobilenetV2/expanded_conv_9/expand/BatchNorm/gamma/read:02EMobilenetV2/expanded_conv_9/expand/BatchNorm/gamma/Initializer/ones:08\001"
        value: "\n3MobilenetV2/expanded_conv_9/expand/BatchNorm/beta:0\0228MobilenetV2/expanded_conv_9/expand/BatchNorm/beta/Assign\0328MobilenetV2/expanded_conv_9/expand/BatchNorm/beta/read:02EMobilenetV2/expanded_conv_9/expand/BatchNorm/beta/Initializer/zeros:08\001"
        value: "\n:MobilenetV2/expanded_conv_9/expand/BatchNorm/moving_mean:0\022?MobilenetV2/expanded_conv_9/expand/BatchNorm/moving_mean/Assign\032?MobilenetV2/expanded_conv_9/expand/BatchNorm/moving_mean/read:02LMobilenetV2/expanded_conv_9/expand/BatchNorm/moving_mean/Initializer/zeros:0@\003H\002"
        value: "\n>MobilenetV2/expanded_conv_9/expand/BatchNorm/moving_variance:0\022CMobilenetV2/expanded_conv_9/expand/BatchNorm/moving_variance/Assign\032CMobilenetV2/expanded_conv_9/expand/BatchNorm/moving_variance/read:02OMobilenetV2/expanded_conv_9/expand/BatchNorm/moving_variance/Initializer/ones:0@\003H\002"
        value: "\n9MobilenetV2/expanded_conv_9/depthwise/depthwise_weights:0\022>MobilenetV2/expanded_conv_9/depthwise/depthwise_weights/Assign\032>MobilenetV2/expanded_conv_9/depthwise/depthwise_weights/read:02VMobilenetV2/expanded_conv_9/depthwise/depthwise_weights/Initializer/truncated_normal:08\001"
        value: "\n7MobilenetV2/expanded_conv_9/depthwise/BatchNorm/gamma:0\022<MobilenetV2/expanded_conv_9/depthwise/BatchNorm/gamma/Assign\032<MobilenetV2/expanded_conv_9/depthwise/BatchNorm/gamma/read:02HMobilenetV2/expanded_conv_9/depthwise/BatchNorm/gamma/Initializer/ones:08\001"
        value: "\n6MobilenetV2/expanded_conv_9/depthwise/BatchNorm/beta:0\022;MobilenetV2/expanded_conv_9/depthwise/BatchNorm/beta/Assign\032;MobilenetV2/expanded_conv_9/depthwise/BatchNorm/beta/read:02HMobilenetV2/expanded_conv_9/depthwise/BatchNorm/beta/Initializer/zeros:08\001"
        value: "\n=MobilenetV2/expanded_conv_9/depthwise/BatchNorm/moving_mean:0\022BMobilenetV2/expanded_conv_9/depthwise/BatchNorm/moving_mean/Assign\032BMobilenetV2/expanded_conv_9/depthwise/BatchNorm/moving_mean/read:02OMobilenetV2/expanded_conv_9/depthwise/BatchNorm/moving_mean/Initializer/zeros:0@\003H\002"
        value: "\nAMobilenetV2/expanded_conv_9/depthwise/BatchNorm/moving_variance:0\022FMobilenetV2/expanded_conv_9/depthwise/BatchNorm/moving_variance/Assign\032FMobilenetV2/expanded_conv_9/depthwise/BatchNorm/moving_variance/read:02RMobilenetV2/expanded_conv_9/depthwise/BatchNorm/moving_variance/Initializer/ones:0@\003H\002"
        value: "\n-MobilenetV2/expanded_conv_9/project/weights:0\0222MobilenetV2/expanded_conv_9/project/weights/Assign\0322MobilenetV2/expanded_conv_9/project/weights/read:02JMobilenetV2/expanded_conv_9/project/weights/Initializer/truncated_normal:08\001"
        value: "\n5MobilenetV2/expanded_conv_9/project/BatchNorm/gamma:0\022:MobilenetV2/expanded_conv_9/project/BatchNorm/gamma/Assign\032:MobilenetV2/expanded_conv_9/project/BatchNorm/gamma/read:02FMobilenetV2/expanded_conv_9/project/BatchNorm/gamma/Initializer/ones:08\001"
        value: "\n4MobilenetV2/expanded_conv_9/project/BatchNorm/beta:0\0229MobilenetV2/expanded_conv_9/project/BatchNorm/beta/Assign\0329MobilenetV2/expanded_conv_9/project/BatchNorm/beta/read:02FMobilenetV2/expanded_conv_9/project/BatchNorm/beta/Initializer/zeros:08\001"
        value: "\n;MobilenetV2/expanded_conv_9/project/BatchNorm/moving_mean:0\022@MobilenetV2/expanded_conv_9/project/BatchNorm/moving_mean/Assign\032@MobilenetV2/expanded_conv_9/project/BatchNorm/moving_mean/read:02MMobilenetV2/expanded_conv_9/project/BatchNorm/moving_mean/Initializer/zeros:0@\003H\002"
        value: "\n?MobilenetV2/expanded_conv_9/project/BatchNorm/moving_variance:0\022DMobilenetV2/expanded_conv_9/project/BatchNorm/moving_variance/Assign\032DMobilenetV2/expanded_conv_9/project/BatchNorm/moving_variance/read:02PMobilenetV2/expanded_conv_9/project/BatchNorm/moving_variance/Initializer/ones:0@\003H\002"
        value: "\n-MobilenetV2/expanded_conv_10/expand/weights:0\0222MobilenetV2/expanded_conv_10/expand/weights/Assign\0322MobilenetV2/expanded_conv_10/expand/weights/read:02JMobilenetV2/expanded_conv_10/expand/weights/Initializer/truncated_normal:08\001"
        value: "\n5MobilenetV2/expanded_conv_10/expand/BatchNorm/gamma:0\022:MobilenetV2/expanded_conv_10/expand/BatchNorm/gamma/Assign\032:MobilenetV2/expanded_conv_10/expand/BatchNorm/gamma/read:02FMobilenetV2/expanded_conv_10/expand/BatchNorm/gamma/Initializer/ones:08\001"
        value: "\n4MobilenetV2/expanded_conv_10/expand/BatchNorm/beta:0\0229MobilenetV2/expanded_conv_10/expand/BatchNorm/beta/Assign\0329MobilenetV2/expanded_conv_10/expand/BatchNorm/beta/read:02FMobilenetV2/expanded_conv_10/expand/BatchNorm/beta/Initializer/zeros:08\001"
        value: "\n;MobilenetV2/expanded_conv_10/expand/BatchNorm/moving_mean:0\022@MobilenetV2/expanded_conv_10/expand/BatchNorm/moving_mean/Assign\032@MobilenetV2/expanded_conv_10/expand/BatchNorm/moving_mean/read:02MMobilenetV2/expanded_conv_10/expand/BatchNorm/moving_mean/Initializer/zeros:0@\003H\002"
        value: "\n?MobilenetV2/expanded_conv_10/expand/BatchNorm/moving_variance:0\022DMobilenetV2/expanded_conv_10/expand/BatchNorm/moving_variance/Assign\032DMobilenetV2/expanded_conv_10/expand/BatchNorm/moving_variance/read:02PMobilenetV2/expanded_conv_10/expand/BatchNorm/moving_variance/Initializer/ones:0@\003H\002"
        value: "\n:MobilenetV2/expanded_conv_10/depthwise/depthwise_weights:0\022?MobilenetV2/expanded_conv_10/depthwise/depthwise_weights/Assign\032?MobilenetV2/expanded_conv_10/depthwise/depthwise_weights/read:02WMobilenetV2/expanded_conv_10/depthwise/depthwise_weights/Initializer/truncated_normal:08\001"
        value: "\n8MobilenetV2/expanded_conv_10/depthwise/BatchNorm/gamma:0\022=MobilenetV2/expanded_conv_10/depthwise/BatchNorm/gamma/Assign\032=MobilenetV2/expanded_conv_10/depthwise/BatchNorm/gamma/read:02IMobilenetV2/expanded_conv_10/depthwise/BatchNorm/gamma/Initializer/ones:08\001"
        value: "\n7MobilenetV2/expanded_conv_10/depthwise/BatchNorm/beta:0\022<MobilenetV2/expanded_conv_10/depthwise/BatchNorm/beta/Assign\032<MobilenetV2/expanded_conv_10/depthwise/BatchNorm/beta/read:02IMobilenetV2/expanded_conv_10/depthwise/BatchNorm/beta/Initializer/zeros:08\001"
        value: "\n>MobilenetV2/expanded_conv_10/depthwise/BatchNorm/moving_mean:0\022CMobilenetV2/expanded_conv_10/depthwise/BatchNorm/moving_mean/Assign\032CMobilenetV2/expanded_conv_10/depthwise/BatchNorm/moving_mean/read:02PMobilenetV2/expanded_conv_10/depthwise/BatchNorm/moving_mean/Initializer/zeros:0@\003H\002"
        value: "\nBMobilenetV2/expanded_conv_10/depthwise/BatchNorm/moving_variance:0\022GMobilenetV2/expanded_conv_10/depthwise/BatchNorm/moving_variance/Assign\032GMobilenetV2/expanded_conv_10/depthwise/BatchNorm/moving_variance/read:02SMobilenetV2/expanded_conv_10/depthwise/BatchNorm/moving_variance/Initializer/ones:0@\003H\002"
        value: "\n.MobilenetV2/expanded_conv_10/project/weights:0\0223MobilenetV2/expanded_conv_10/project/weights/Assign\0323MobilenetV2/expanded_conv_10/project/weights/read:02KMobilenetV2/expanded_conv_10/project/weights/Initializer/truncated_normal:08\001"
        value: "\n6MobilenetV2/expanded_conv_10/project/BatchNorm/gamma:0\022;MobilenetV2/expanded_conv_10/project/BatchNorm/gamma/Assign\032;MobilenetV2/expanded_conv_10/project/BatchNorm/gamma/read:02GMobilenetV2/expanded_conv_10/project/BatchNorm/gamma/Initializer/ones:08\001"
        value: "\n5MobilenetV2/expanded_conv_10/project/BatchNorm/beta:0\022:MobilenetV2/expanded_conv_10/project/BatchNorm/beta/Assign\032:MobilenetV2/expanded_conv_10/project/BatchNorm/beta/read:02GMobilenetV2/expanded_conv_10/project/BatchNorm/beta/Initializer/zeros:08\001"
        value: "\n<MobilenetV2/expanded_conv_10/project/BatchNorm/moving_mean:0\022AMobilenetV2/expanded_conv_10/project/BatchNorm/moving_mean/Assign\032AMobilenetV2/expanded_conv_10/project/BatchNorm/moving_mean/read:02NMobilenetV2/expanded_conv_10/project/BatchNorm/moving_mean/Initializer/zeros:0@\003H\002"
        value: "\n@MobilenetV2/expanded_conv_10/project/BatchNorm/moving_variance:0\022EMobilenetV2/expanded_conv_10/project/BatchNorm/moving_variance/Assign\032EMobilenetV2/expanded_conv_10/project/BatchNorm/moving_variance/read:02QMobilenetV2/expanded_conv_10/project/BatchNorm/moving_variance/Initializer/ones:0@\003H\002"
        value: "\n-MobilenetV2/expanded_conv_11/expand/weights:0\0222MobilenetV2/expanded_conv_11/expand/weights/Assign\0322MobilenetV2/expanded_conv_11/expand/weights/read:02JMobilenetV2/expanded_conv_11/expand/weights/Initializer/truncated_normal:08\001"
        value: "\n5MobilenetV2/expanded_conv_11/expand/BatchNorm/gamma:0\022:MobilenetV2/expanded_conv_11/expand/BatchNorm/gamma/Assign\032:MobilenetV2/expanded_conv_11/expand/BatchNorm/gamma/read:02FMobilenetV2/expanded_conv_11/expand/BatchNorm/gamma/Initializer/ones:08\001"
        value: "\n4MobilenetV2/expanded_conv_11/expand/BatchNorm/beta:0\0229MobilenetV2/expanded_conv_11/expand/BatchNorm/beta/Assign\0329MobilenetV2/expanded_conv_11/expand/BatchNorm/beta/read:02FMobilenetV2/expanded_conv_11/expand/BatchNorm/beta/Initializer/zeros:08\001"
        value: "\n;MobilenetV2/expanded_conv_11/expand/BatchNorm/moving_mean:0\022@MobilenetV2/expanded_conv_11/expand/BatchNorm/moving_mean/Assign\032@MobilenetV2/expanded_conv_11/expand/BatchNorm/moving_mean/read:02MMobilenetV2/expanded_conv_11/expand/BatchNorm/moving_mean/Initializer/zeros:0@\003H\002"
        value: "\n?MobilenetV2/expanded_conv_11/expand/BatchNorm/moving_variance:0\022DMobilenetV2/expanded_conv_11/expand/BatchNorm/moving_variance/Assign\032DMobilenetV2/expanded_conv_11/expand/BatchNorm/moving_variance/read:02PMobilenetV2/expanded_conv_11/expand/BatchNorm/moving_variance/Initializer/ones:0@\003H\002"
        value: "\n:MobilenetV2/expanded_conv_11/depthwise/depthwise_weights:0\022?MobilenetV2/expanded_conv_11/depthwise/depthwise_weights/Assign\032?MobilenetV2/expanded_conv_11/depthwise/depthwise_weights/read:02WMobilenetV2/expanded_conv_11/depthwise/depthwise_weights/Initializer/truncated_normal:08\001"
        value: "\n8MobilenetV2/expanded_conv_11/depthwise/BatchNorm/gamma:0\022=MobilenetV2/expanded_conv_11/depthwise/BatchNorm/gamma/Assign\032=MobilenetV2/expanded_conv_11/depthwise/BatchNorm/gamma/read:02IMobilenetV2/expanded_conv_11/depthwise/BatchNorm/gamma/Initializer/ones:08\001"
        value: "\n7MobilenetV2/expanded_conv_11/depthwise/BatchNorm/beta:0\022<MobilenetV2/expanded_conv_11/depthwise/BatchNorm/beta/Assign\032<MobilenetV2/expanded_conv_11/depthwise/BatchNorm/beta/read:02IMobilenetV2/expanded_conv_11/depthwise/BatchNorm/beta/Initializer/zeros:08\001"
        value: "\n>MobilenetV2/expanded_conv_11/depthwise/BatchNorm/moving_mean:0\022CMobilenetV2/expanded_conv_11/depthwise/BatchNorm/moving_mean/Assign\032CMobilenetV2/expanded_conv_11/depthwise/BatchNorm/moving_mean/read:02PMobilenetV2/expanded_conv_11/depthwise/BatchNorm/moving_mean/Initializer/zeros:0@\003H\002"
        value: "\nBMobilenetV2/expanded_conv_11/depthwise/BatchNorm/moving_variance:0\022GMobilenetV2/expanded_conv_11/depthwise/BatchNorm/moving_variance/Assign\032GMobilenetV2/expanded_conv_11/depthwise/BatchNorm/moving_variance/read:02SMobilenetV2/expanded_conv_11/depthwise/BatchNorm/moving_variance/Initializer/ones:0@\003H\002"
        value: "\n.MobilenetV2/expanded_conv_11/project/weights:0\0223MobilenetV2/expanded_conv_11/project/weights/Assign\0323MobilenetV2/expanded_conv_11/project/weights/read:02KMobilenetV2/expanded_conv_11/project/weights/Initializer/truncated_normal:08\001"
        value: "\n6MobilenetV2/expanded_conv_11/project/BatchNorm/gamma:0\022;MobilenetV2/expanded_conv_11/project/BatchNorm/gamma/Assign\032;MobilenetV2/expanded_conv_11/project/BatchNorm/gamma/read:02GMobilenetV2/expanded_conv_11/project/BatchNorm/gamma/Initializer/ones:08\001"
        value: "\n5MobilenetV2/expanded_conv_11/project/BatchNorm/beta:0\022:MobilenetV2/expanded_conv_11/project/BatchNorm/beta/Assign\032:MobilenetV2/expanded_conv_11/project/BatchNorm/beta/read:02GMobilenetV2/expanded_conv_11/project/BatchNorm/beta/Initializer/zeros:08\001"
        value: "\n<MobilenetV2/expanded_conv_11/project/BatchNorm/moving_mean:0\022AMobilenetV2/expanded_conv_11/project/BatchNorm/moving_mean/Assign\032AMobilenetV2/expanded_conv_11/project/BatchNorm/moving_mean/read:02NMobilenetV2/expanded_conv_11/project/BatchNorm/moving_mean/Initializer/zeros:0@\003H\002"
        value: "\n@MobilenetV2/expanded_conv_11/project/BatchNorm/moving_variance:0\022EMobilenetV2/expanded_conv_11/project/BatchNorm/moving_variance/Assign\032EMobilenetV2/expanded_conv_11/project/BatchNorm/moving_variance/read:02QMobilenetV2/expanded_conv_11/project/BatchNorm/moving_variance/Initializer/ones:0@\003H\002"
        value: "\n-MobilenetV2/expanded_conv_12/expand/weights:0\0222MobilenetV2/expanded_conv_12/expand/weights/Assign\0322MobilenetV2/expanded_conv_12/expand/weights/read:02JMobilenetV2/expanded_conv_12/expand/weights/Initializer/truncated_normal:08\001"
        value: "\n5MobilenetV2/expanded_conv_12/expand/BatchNorm/gamma:0\022:MobilenetV2/expanded_conv_12/expand/BatchNorm/gamma/Assign\032:MobilenetV2/expanded_conv_12/expand/BatchNorm/gamma/read:02FMobilenetV2/expanded_conv_12/expand/BatchNorm/gamma/Initializer/ones:08\001"
        value: "\n4MobilenetV2/expanded_conv_12/expand/BatchNorm/beta:0\0229MobilenetV2/expanded_conv_12/expand/BatchNorm/beta/Assign\0329MobilenetV2/expanded_conv_12/expand/BatchNorm/beta/read:02FMobilenetV2/expanded_conv_12/expand/BatchNorm/beta/Initializer/zeros:08\001"
        value: "\n;MobilenetV2/expanded_conv_12/expand/BatchNorm/moving_mean:0\022@MobilenetV2/expanded_conv_12/expand/BatchNorm/moving_mean/Assign\032@MobilenetV2/expanded_conv_12/expand/BatchNorm/moving_mean/read:02MMobilenetV2/expanded_conv_12/expand/BatchNorm/moving_mean/Initializer/zeros:0@\003H\002"
        value: "\n?MobilenetV2/expanded_conv_12/expand/BatchNorm/moving_variance:0\022DMobilenetV2/expanded_conv_12/expand/BatchNorm/moving_variance/Assign\032DMobilenetV2/expanded_conv_12/expand/BatchNorm/moving_variance/read:02PMobilenetV2/expanded_conv_12/expand/BatchNorm/moving_variance/Initializer/ones:0@\003H\002"
        value: "\n:MobilenetV2/expanded_conv_12/depthwise/depthwise_weights:0\022?MobilenetV2/expanded_conv_12/depthwise/depthwise_weights/Assign\032?MobilenetV2/expanded_conv_12/depthwise/depthwise_weights/read:02WMobilenetV2/expanded_conv_12/depthwise/depthwise_weights/Initializer/truncated_normal:08\001"
        value: "\n8MobilenetV2/expanded_conv_12/depthwise/BatchNorm/gamma:0\022=MobilenetV2/expanded_conv_12/depthwise/BatchNorm/gamma/Assign\032=MobilenetV2/expanded_conv_12/depthwise/BatchNorm/gamma/read:02IMobilenetV2/expanded_conv_12/depthwise/BatchNorm/gamma/Initializer/ones:08\001"
        value: "\n7MobilenetV2/expanded_conv_12/depthwise/BatchNorm/beta:0\022<MobilenetV2/expanded_conv_12/depthwise/BatchNorm/beta/Assign\032<MobilenetV2/expanded_conv_12/depthwise/BatchNorm/beta/read:02IMobilenetV2/expanded_conv_12/depthwise/BatchNorm/beta/Initializer/zeros:08\001"
        value: "\n>MobilenetV2/expanded_conv_12/depthwise/BatchNorm/moving_mean:0\022CMobilenetV2/expanded_conv_12/depthwise/BatchNorm/moving_mean/Assign\032CMobilenetV2/expanded_conv_12/depthwise/BatchNorm/moving_mean/read:02PMobilenetV2/expanded_conv_12/depthwise/BatchNorm/moving_mean/Initializer/zeros:0@\003H\002"
        value: "\nBMobilenetV2/expanded_conv_12/depthwise/BatchNorm/moving_variance:0\022GMobilenetV2/expanded_conv_12/depthwise/BatchNorm/moving_variance/Assign\032GMobilenetV2/expanded_conv_12/depthwise/BatchNorm/moving_variance/read:02SMobilenetV2/expanded_conv_12/depthwise/BatchNorm/moving_variance/Initializer/ones:0@\003H\002"
        value: "\n.MobilenetV2/expanded_conv_12/project/weights:0\0223MobilenetV2/expanded_conv_12/project/weights/Assign\0323MobilenetV2/expanded_conv_12/project/weights/read:02KMobilenetV2/expanded_conv_12/project/weights/Initializer/truncated_normal:08\001"
        value: "\n6MobilenetV2/expanded_conv_12/project/BatchNorm/gamma:0\022;MobilenetV2/expanded_conv_12/project/BatchNorm/gamma/Assign\032;MobilenetV2/expanded_conv_12/project/BatchNorm/gamma/read:02GMobilenetV2/expanded_conv_12/project/BatchNorm/gamma/Initializer/ones:08\001"
        value: "\n5MobilenetV2/expanded_conv_12/project/BatchNorm/beta:0\022:MobilenetV2/expanded_conv_12/project/BatchNorm/beta/Assign\032:MobilenetV2/expanded_conv_12/project/BatchNorm/beta/read:02GMobilenetV2/expanded_conv_12/project/BatchNorm/beta/Initializer/zeros:08\001"
        value: "\n<MobilenetV2/expanded_conv_12/project/BatchNorm/moving_mean:0\022AMobilenetV2/expanded_conv_12/project/BatchNorm/moving_mean/Assign\032AMobilenetV2/expanded_conv_12/project/BatchNorm/moving_mean/read:02NMobilenetV2/expanded_conv_12/project/BatchNorm/moving_mean/Initializer/zeros:0@\003H\002"
        value: "\n@MobilenetV2/expanded_conv_12/project/BatchNorm/moving_variance:0\022EMobilenetV2/expanded_conv_12/project/BatchNorm/moving_variance/Assign\032EMobilenetV2/expanded_conv_12/project/BatchNorm/moving_variance/read:02QMobilenetV2/expanded_conv_12/project/BatchNorm/moving_variance/Initializer/ones:0@\003H\002"
        value: "\n-MobilenetV2/expanded_conv_13/expand/weights:0\0222MobilenetV2/expanded_conv_13/expand/weights/Assign\0322MobilenetV2/expanded_conv_13/expand/weights/read:02JMobilenetV2/expanded_conv_13/expand/weights/Initializer/truncated_normal:08\001"
        value: "\n5MobilenetV2/expanded_conv_13/expand/BatchNorm/gamma:0\022:MobilenetV2/expanded_conv_13/expand/BatchNorm/gamma/Assign\032:MobilenetV2/expanded_conv_13/expand/BatchNorm/gamma/read:02FMobilenetV2/expanded_conv_13/expand/BatchNorm/gamma/Initializer/ones:08\001"
        value: "\n4MobilenetV2/expanded_conv_13/expand/BatchNorm/beta:0\0229MobilenetV2/expanded_conv_13/expand/BatchNorm/beta/Assign\0329MobilenetV2/expanded_conv_13/expand/BatchNorm/beta/read:02FMobilenetV2/expanded_conv_13/expand/BatchNorm/beta/Initializer/zeros:08\001"
        value: "\n;MobilenetV2/expanded_conv_13/expand/BatchNorm/moving_mean:0\022@MobilenetV2/expanded_conv_13/expand/BatchNorm/moving_mean/Assign\032@MobilenetV2/expanded_conv_13/expand/BatchNorm/moving_mean/read:02MMobilenetV2/expanded_conv_13/expand/BatchNorm/moving_mean/Initializer/zeros:0@\003H\002"
        value: "\n?MobilenetV2/expanded_conv_13/expand/BatchNorm/moving_variance:0\022DMobilenetV2/expanded_conv_13/expand/BatchNorm/moving_variance/Assign\032DMobilenetV2/expanded_conv_13/expand/BatchNorm/moving_variance/read:02PMobilenetV2/expanded_conv_13/expand/BatchNorm/moving_variance/Initializer/ones:0@\003H\002"
        value: "\n:MobilenetV2/expanded_conv_13/depthwise/depthwise_weights:0\022?MobilenetV2/expanded_conv_13/depthwise/depthwise_weights/Assign\032?MobilenetV2/expanded_conv_13/depthwise/depthwise_weights/read:02WMobilenetV2/expanded_conv_13/depthwise/depthwise_weights/Initializer/truncated_normal:08\001"
        value: "\n8MobilenetV2/expanded_conv_13/depthwise/BatchNorm/gamma:0\022=MobilenetV2/expanded_conv_13/depthwise/BatchNorm/gamma/Assign\032=MobilenetV2/expanded_conv_13/depthwise/BatchNorm/gamma/read:02IMobilenetV2/expanded_conv_13/depthwise/BatchNorm/gamma/Initializer/ones:08\001"
        value: "\n7MobilenetV2/expanded_conv_13/depthwise/BatchNorm/beta:0\022<MobilenetV2/expanded_conv_13/depthwise/BatchNorm/beta/Assign\032<MobilenetV2/expanded_conv_13/depthwise/BatchNorm/beta/read:02IMobilenetV2/expanded_conv_13/depthwise/BatchNorm/beta/Initializer/zeros:08\001"
        value: "\n>MobilenetV2/expanded_conv_13/depthwise/BatchNorm/moving_mean:0\022CMobilenetV2/expanded_conv_13/depthwise/BatchNorm/moving_mean/Assign\032CMobilenetV2/expanded_conv_13/depthwise/BatchNorm/moving_mean/read:02PMobilenetV2/expanded_conv_13/depthwise/BatchNorm/moving_mean/Initializer/zeros:0@\003H\002"
        value: "\nBMobilenetV2/expanded_conv_13/depthwise/BatchNorm/moving_variance:0\022GMobilenetV2/expanded_conv_13/depthwise/BatchNorm/moving_variance/Assign\032GMobilenetV2/expanded_conv_13/depthwise/BatchNorm/moving_variance/read:02SMobilenetV2/expanded_conv_13/depthwise/BatchNorm/moving_variance/Initializer/ones:0@\003H\002"
        value: "\n.MobilenetV2/expanded_conv_13/project/weights:0\0223MobilenetV2/expanded_conv_13/project/weights/Assign\0323MobilenetV2/expanded_conv_13/project/weights/read:02KMobilenetV2/expanded_conv_13/project/weights/Initializer/truncated_normal:08\001"
        value: "\n6MobilenetV2/expanded_conv_13/project/BatchNorm/gamma:0\022;MobilenetV2/expanded_conv_13/project/BatchNorm/gamma/Assign\032;MobilenetV2/expanded_conv_13/project/BatchNorm/gamma/read:02GMobilenetV2/expanded_conv_13/project/BatchNorm/gamma/Initializer/ones:08\001"
        value: "\n5MobilenetV2/expanded_conv_13/project/BatchNorm/beta:0\022:MobilenetV2/expanded_conv_13/project/BatchNorm/beta/Assign\032:MobilenetV2/expanded_conv_13/project/BatchNorm/beta/read:02GMobilenetV2/expanded_conv_13/project/BatchNorm/beta/Initializer/zeros:08\001"
        value: "\n<MobilenetV2/expanded_conv_13/project/BatchNorm/moving_mean:0\022AMobilenetV2/expanded_conv_13/project/BatchNorm/moving_mean/Assign\032AMobilenetV2/expanded_conv_13/project/BatchNorm/moving_mean/read:02NMobilenetV2/expanded_conv_13/project/BatchNorm/moving_mean/Initializer/zeros:0@\003H\002"
        value: "\n@MobilenetV2/expanded_conv_13/project/BatchNorm/moving_variance:0\022EMobilenetV2/expanded_conv_13/project/BatchNorm/moving_variance/Assign\032EMobilenetV2/expanded_conv_13/project/BatchNorm/moving_variance/read:02QMobilenetV2/expanded_conv_13/project/BatchNorm/moving_variance/Initializer/ones:0@\003H\002"
        value: "\n-MobilenetV2/expanded_conv_14/expand/weights:0\0222MobilenetV2/expanded_conv_14/expand/weights/Assign\0322MobilenetV2/expanded_conv_14/expand/weights/read:02JMobilenetV2/expanded_conv_14/expand/weights/Initializer/truncated_normal:08\001"
        value: "\n5MobilenetV2/expanded_conv_14/expand/BatchNorm/gamma:0\022:MobilenetV2/expanded_conv_14/expand/BatchNorm/gamma/Assign\032:MobilenetV2/expanded_conv_14/expand/BatchNorm/gamma/read:02FMobilenetV2/expanded_conv_14/expand/BatchNorm/gamma/Initializer/ones:08\001"
        value: "\n4MobilenetV2/expanded_conv_14/expand/BatchNorm/beta:0\0229MobilenetV2/expanded_conv_14/expand/BatchNorm/beta/Assign\0329MobilenetV2/expanded_conv_14/expand/BatchNorm/beta/read:02FMobilenetV2/expanded_conv_14/expand/BatchNorm/beta/Initializer/zeros:08\001"
        value: "\n;MobilenetV2/expanded_conv_14/expand/BatchNorm/moving_mean:0\022@MobilenetV2/expanded_conv_14/expand/BatchNorm/moving_mean/Assign\032@MobilenetV2/expanded_conv_14/expand/BatchNorm/moving_mean/read:02MMobilenetV2/expanded_conv_14/expand/BatchNorm/moving_mean/Initializer/zeros:0@\003H\002"
        value: "\n?MobilenetV2/expanded_conv_14/expand/BatchNorm/moving_variance:0\022DMobilenetV2/expanded_conv_14/expand/BatchNorm/moving_variance/Assign\032DMobilenetV2/expanded_conv_14/expand/BatchNorm/moving_variance/read:02PMobilenetV2/expanded_conv_14/expand/BatchNorm/moving_variance/Initializer/ones:0@\003H\002"
        value: "\n:MobilenetV2/expanded_conv_14/depthwise/depthwise_weights:0\022?MobilenetV2/expanded_conv_14/depthwise/depthwise_weights/Assign\032?MobilenetV2/expanded_conv_14/depthwise/depthwise_weights/read:02WMobilenetV2/expanded_conv_14/depthwise/depthwise_weights/Initializer/truncated_normal:08\001"
        value: "\n8MobilenetV2/expanded_conv_14/depthwise/BatchNorm/gamma:0\022=MobilenetV2/expanded_conv_14/depthwise/BatchNorm/gamma/Assign\032=MobilenetV2/expanded_conv_14/depthwise/BatchNorm/gamma/read:02IMobilenetV2/expanded_conv_14/depthwise/BatchNorm/gamma/Initializer/ones:08\001"
        value: "\n7MobilenetV2/expanded_conv_14/depthwise/BatchNorm/beta:0\022<MobilenetV2/expanded_conv_14/depthwise/BatchNorm/beta/Assign\032<MobilenetV2/expanded_conv_14/depthwise/BatchNorm/beta/read:02IMobilenetV2/expanded_conv_14/depthwise/BatchNorm/beta/Initializer/zeros:08\001"
        value: "\n>MobilenetV2/expanded_conv_14/depthwise/BatchNorm/moving_mean:0\022CMobilenetV2/expanded_conv_14/depthwise/BatchNorm/moving_mean/Assign\032CMobilenetV2/expanded_conv_14/depthwise/BatchNorm/moving_mean/read:02PMobilenetV2/expanded_conv_14/depthwise/BatchNorm/moving_mean/Initializer/zeros:0@\003H\002"
        value: "\nBMobilenetV2/expanded_conv_14/depthwise/BatchNorm/moving_variance:0\022GMobilenetV2/expanded_conv_14/depthwise/BatchNorm/moving_variance/Assign\032GMobilenetV2/expanded_conv_14/depthwise/BatchNorm/moving_variance/read:02SMobilenetV2/expanded_conv_14/depthwise/BatchNorm/moving_variance/Initializer/ones:0@\003H\002"
        value: "\n.MobilenetV2/expanded_conv_14/project/weights:0\0223MobilenetV2/expanded_conv_14/project/weights/Assign\0323MobilenetV2/expanded_conv_14/project/weights/read:02KMobilenetV2/expanded_conv_14/project/weights/Initializer/truncated_normal:08\001"
        value: "\n6MobilenetV2/expanded_conv_14/project/BatchNorm/gamma:0\022;MobilenetV2/expanded_conv_14/project/BatchNorm/gamma/Assign\032;MobilenetV2/expanded_conv_14/project/BatchNorm/gamma/read:02GMobilenetV2/expanded_conv_14/project/BatchNorm/gamma/Initializer/ones:08\001"
        value: "\n5MobilenetV2/expanded_conv_14/project/BatchNorm/beta:0\022:MobilenetV2/expanded_conv_14/project/BatchNorm/beta/Assign\032:MobilenetV2/expanded_conv_14/project/BatchNorm/beta/read:02GMobilenetV2/expanded_conv_14/project/BatchNorm/beta/Initializer/zeros:08\001"
        value: "\n<MobilenetV2/expanded_conv_14/project/BatchNorm/moving_mean:0\022AMobilenetV2/expanded_conv_14/project/BatchNorm/moving_mean/Assign\032AMobilenetV2/expanded_conv_14/project/BatchNorm/moving_mean/read:02NMobilenetV2/expanded_conv_14/project/BatchNorm/moving_mean/Initializer/zeros:0@\003H\002"
        value: "\n@MobilenetV2/expanded_conv_14/project/BatchNorm/moving_variance:0\022EMobilenetV2/expanded_conv_14/project/BatchNorm/moving_variance/Assign\032EMobilenetV2/expanded_conv_14/project/BatchNorm/moving_variance/read:02QMobilenetV2/expanded_conv_14/project/BatchNorm/moving_variance/Initializer/ones:0@\003H\002"
        value: "\n-MobilenetV2/expanded_conv_15/expand/weights:0\0222MobilenetV2/expanded_conv_15/expand/weights/Assign\0322MobilenetV2/expanded_conv_15/expand/weights/read:02JMobilenetV2/expanded_conv_15/expand/weights/Initializer/truncated_normal:08\001"
        value: "\n5MobilenetV2/expanded_conv_15/expand/BatchNorm/gamma:0\022:MobilenetV2/expanded_conv_15/expand/BatchNorm/gamma/Assign\032:MobilenetV2/expanded_conv_15/expand/BatchNorm/gamma/read:02FMobilenetV2/expanded_conv_15/expand/BatchNorm/gamma/Initializer/ones:08\001"
        value: "\n4MobilenetV2/expanded_conv_15/expand/BatchNorm/beta:0\0229MobilenetV2/expanded_conv_15/expand/BatchNorm/beta/Assign\0329MobilenetV2/expanded_conv_15/expand/BatchNorm/beta/read:02FMobilenetV2/expanded_conv_15/expand/BatchNorm/beta/Initializer/zeros:08\001"
        value: "\n;MobilenetV2/expanded_conv_15/expand/BatchNorm/moving_mean:0\022@MobilenetV2/expanded_conv_15/expand/BatchNorm/moving_mean/Assign\032@MobilenetV2/expanded_conv_15/expand/BatchNorm/moving_mean/read:02MMobilenetV2/expanded_conv_15/expand/BatchNorm/moving_mean/Initializer/zeros:0@\003H\002"
        value: "\n?MobilenetV2/expanded_conv_15/expand/BatchNorm/moving_variance:0\022DMobilenetV2/expanded_conv_15/expand/BatchNorm/moving_variance/Assign\032DMobilenetV2/expanded_conv_15/expand/BatchNorm/moving_variance/read:02PMobilenetV2/expanded_conv_15/expand/BatchNorm/moving_variance/Initializer/ones:0@\003H\002"
        value: "\n:MobilenetV2/expanded_conv_15/depthwise/depthwise_weights:0\022?MobilenetV2/expanded_conv_15/depthwise/depthwise_weights/Assign\032?MobilenetV2/expanded_conv_15/depthwise/depthwise_weights/read:02WMobilenetV2/expanded_conv_15/depthwise/depthwise_weights/Initializer/truncated_normal:08\001"
        value: "\n8MobilenetV2/expanded_conv_15/depthwise/BatchNorm/gamma:0\022=MobilenetV2/expanded_conv_15/depthwise/BatchNorm/gamma/Assign\032=MobilenetV2/expanded_conv_15/depthwise/BatchNorm/gamma/read:02IMobilenetV2/expanded_conv_15/depthwise/BatchNorm/gamma/Initializer/ones:08\001"
        value: "\n7MobilenetV2/expanded_conv_15/depthwise/BatchNorm/beta:0\022<MobilenetV2/expanded_conv_15/depthwise/BatchNorm/beta/Assign\032<MobilenetV2/expanded_conv_15/depthwise/BatchNorm/beta/read:02IMobilenetV2/expanded_conv_15/depthwise/BatchNorm/beta/Initializer/zeros:08\001"
        value: "\n>MobilenetV2/expanded_conv_15/depthwise/BatchNorm/moving_mean:0\022CMobilenetV2/expanded_conv_15/depthwise/BatchNorm/moving_mean/Assign\032CMobilenetV2/expanded_conv_15/depthwise/BatchNorm/moving_mean/read:02PMobilenetV2/expanded_conv_15/depthwise/BatchNorm/moving_mean/Initializer/zeros:0@\003H\002"
        value: "\nBMobilenetV2/expanded_conv_15/depthwise/BatchNorm/moving_variance:0\022GMobilenetV2/expanded_conv_15/depthwise/BatchNorm/moving_variance/Assign\032GMobilenetV2/expanded_conv_15/depthwise/BatchNorm/moving_variance/read:02SMobilenetV2/expanded_conv_15/depthwise/BatchNorm/moving_variance/Initializer/ones:0@\003H\002"
        value: "\n.MobilenetV2/expanded_conv_15/project/weights:0\0223MobilenetV2/expanded_conv_15/project/weights/Assign\0323MobilenetV2/expanded_conv_15/project/weights/read:02KMobilenetV2/expanded_conv_15/project/weights/Initializer/truncated_normal:08\001"
        value: "\n6MobilenetV2/expanded_conv_15/project/BatchNorm/gamma:0\022;MobilenetV2/expanded_conv_15/project/BatchNorm/gamma/Assign\032;MobilenetV2/expanded_conv_15/project/BatchNorm/gamma/read:02GMobilenetV2/expanded_conv_15/project/BatchNorm/gamma/Initializer/ones:08\001"
        value: "\n5MobilenetV2/expanded_conv_15/project/BatchNorm/beta:0\022:MobilenetV2/expanded_conv_15/project/BatchNorm/beta/Assign\032:MobilenetV2/expanded_conv_15/project/BatchNorm/beta/read:02GMobilenetV2/expanded_conv_15/project/BatchNorm/beta/Initializer/zeros:08\001"
        value: "\n<MobilenetV2/expanded_conv_15/project/BatchNorm/moving_mean:0\022AMobilenetV2/expanded_conv_15/project/BatchNorm/moving_mean/Assign\032AMobilenetV2/expanded_conv_15/project/BatchNorm/moving_mean/read:02NMobilenetV2/expanded_conv_15/project/BatchNorm/moving_mean/Initializer/zeros:0@\003H\002"
        value: "\n@MobilenetV2/expanded_conv_15/project/BatchNorm/moving_variance:0\022EMobilenetV2/expanded_conv_15/project/BatchNorm/moving_variance/Assign\032EMobilenetV2/expanded_conv_15/project/BatchNorm/moving_variance/read:02QMobilenetV2/expanded_conv_15/project/BatchNorm/moving_variance/Initializer/ones:0@\003H\002"
        value: "\n-MobilenetV2/expanded_conv_16/expand/weights:0\0222MobilenetV2/expanded_conv_16/expand/weights/Assign\0322MobilenetV2/expanded_conv_16/expand/weights/read:02JMobilenetV2/expanded_conv_16/expand/weights/Initializer/truncated_normal:08\001"
        value: "\n5MobilenetV2/expanded_conv_16/expand/BatchNorm/gamma:0\022:MobilenetV2/expanded_conv_16/expand/BatchNorm/gamma/Assign\032:MobilenetV2/expanded_conv_16/expand/BatchNorm/gamma/read:02FMobilenetV2/expanded_conv_16/expand/BatchNorm/gamma/Initializer/ones:08\001"
        value: "\n4MobilenetV2/expanded_conv_16/expand/BatchNorm/beta:0\0229MobilenetV2/expanded_conv_16/expand/BatchNorm/beta/Assign\0329MobilenetV2/expanded_conv_16/expand/BatchNorm/beta/read:02FMobilenetV2/expanded_conv_16/expand/BatchNorm/beta/Initializer/zeros:08\001"
        value: "\n;MobilenetV2/expanded_conv_16/expand/BatchNorm/moving_mean:0\022@MobilenetV2/expanded_conv_16/expand/BatchNorm/moving_mean/Assign\032@MobilenetV2/expanded_conv_16/expand/BatchNorm/moving_mean/read:02MMobilenetV2/expanded_conv_16/expand/BatchNorm/moving_mean/Initializer/zeros:0@\003H\002"
        value: "\n?MobilenetV2/expanded_conv_16/expand/BatchNorm/moving_variance:0\022DMobilenetV2/expanded_conv_16/expand/BatchNorm/moving_variance/Assign\032DMobilenetV2/expanded_conv_16/expand/BatchNorm/moving_variance/read:02PMobilenetV2/expanded_conv_16/expand/BatchNorm/moving_variance/Initializer/ones:0@\003H\002"
        value: "\n:MobilenetV2/expanded_conv_16/depthwise/depthwise_weights:0\022?MobilenetV2/expanded_conv_16/depthwise/depthwise_weights/Assign\032?MobilenetV2/expanded_conv_16/depthwise/depthwise_weights/read:02WMobilenetV2/expanded_conv_16/depthwise/depthwise_weights/Initializer/truncated_normal:08\001"
        value: "\n8MobilenetV2/expanded_conv_16/depthwise/BatchNorm/gamma:0\022=MobilenetV2/expanded_conv_16/depthwise/BatchNorm/gamma/Assign\032=MobilenetV2/expanded_conv_16/depthwise/BatchNorm/gamma/read:02IMobilenetV2/expanded_conv_16/depthwise/BatchNorm/gamma/Initializer/ones:08\001"
        value: "\n7MobilenetV2/expanded_conv_16/depthwise/BatchNorm/beta:0\022<MobilenetV2/expanded_conv_16/depthwise/BatchNorm/beta/Assign\032<MobilenetV2/expanded_conv_16/depthwise/BatchNorm/beta/read:02IMobilenetV2/expanded_conv_16/depthwise/BatchNorm/beta/Initializer/zeros:08\001"
        value: "\n>MobilenetV2/expanded_conv_16/depthwise/BatchNorm/moving_mean:0\022CMobilenetV2/expanded_conv_16/depthwise/BatchNorm/moving_mean/Assign\032CMobilenetV2/expanded_conv_16/depthwise/BatchNorm/moving_mean/read:02PMobilenetV2/expanded_conv_16/depthwise/BatchNorm/moving_mean/Initializer/zeros:0@\003H\002"
        value: "\nBMobilenetV2/expanded_conv_16/depthwise/BatchNorm/moving_variance:0\022GMobilenetV2/expanded_conv_16/depthwise/BatchNorm/moving_variance/Assign\032GMobilenetV2/expanded_conv_16/depthwise/BatchNorm/moving_variance/read:02SMobilenetV2/expanded_conv_16/depthwise/BatchNorm/moving_variance/Initializer/ones:0@\003H\002"
        value: "\n.MobilenetV2/expanded_conv_16/project/weights:0\0223MobilenetV2/expanded_conv_16/project/weights/Assign\0323MobilenetV2/expanded_conv_16/project/weights/read:02KMobilenetV2/expanded_conv_16/project/weights/Initializer/truncated_normal:08\001"
        value: "\n6MobilenetV2/expanded_conv_16/project/BatchNorm/gamma:0\022;MobilenetV2/expanded_conv_16/project/BatchNorm/gamma/Assign\032;MobilenetV2/expanded_conv_16/project/BatchNorm/gamma/read:02GMobilenetV2/expanded_conv_16/project/BatchNorm/gamma/Initializer/ones:08\001"
        value: "\n5MobilenetV2/expanded_conv_16/project/BatchNorm/beta:0\022:MobilenetV2/expanded_conv_16/project/BatchNorm/beta/Assign\032:MobilenetV2/expanded_conv_16/project/BatchNorm/beta/read:02GMobilenetV2/expanded_conv_16/project/BatchNorm/beta/Initializer/zeros:08\001"
        value: "\n<MobilenetV2/expanded_conv_16/project/BatchNorm/moving_mean:0\022AMobilenetV2/expanded_conv_16/project/BatchNorm/moving_mean/Assign\032AMobilenetV2/expanded_conv_16/project/BatchNorm/moving_mean/read:02NMobilenetV2/expanded_conv_16/project/BatchNorm/moving_mean/Initializer/zeros:0@\003H\002"
        value: "\n@MobilenetV2/expanded_conv_16/project/BatchNorm/moving_variance:0\022EMobilenetV2/expanded_conv_16/project/BatchNorm/moving_variance/Assign\032EMobilenetV2/expanded_conv_16/project/BatchNorm/moving_variance/read:02QMobilenetV2/expanded_conv_16/project/BatchNorm/moving_variance/Initializer/ones:0@\003H\002"
        value: "\n\027image_pooling/weights:0\022\034image_pooling/weights/Assign\032\034image_pooling/weights/read:022image_pooling/weights/Initializer/random_uniform:08\001"
        value: "\n\037image_pooling/BatchNorm/gamma:0\022$image_pooling/BatchNorm/gamma/Assign\032$image_pooling/BatchNorm/gamma/read:020image_pooling/BatchNorm/gamma/Initializer/ones:08\001"
        value: "\n\036image_pooling/BatchNorm/beta:0\022#image_pooling/BatchNorm/beta/Assign\032#image_pooling/BatchNorm/beta/read:020image_pooling/BatchNorm/beta/Initializer/zeros:08\001"
        value: "\n%image_pooling/BatchNorm/moving_mean:0\022*image_pooling/BatchNorm/moving_mean/Assign\032*image_pooling/BatchNorm/moving_mean/read:027image_pooling/BatchNorm/moving_mean/Initializer/zeros:0@\003H\002"
        value: "\n)image_pooling/BatchNorm/moving_variance:0\022.image_pooling/BatchNorm/moving_variance/Assign\032.image_pooling/BatchNorm/moving_variance/read:02:image_pooling/BatchNorm/moving_variance/Initializer/ones:0@\003H\002"
        value: "\n\017aspp0/weights:0\022\024aspp0/weights/Assign\032\024aspp0/weights/read:02*aspp0/weights/Initializer/random_uniform:08\001"
        value: "\n\027aspp0/BatchNorm/gamma:0\022\034aspp0/BatchNorm/gamma/Assign\032\034aspp0/BatchNorm/gamma/read:02(aspp0/BatchNorm/gamma/Initializer/ones:08\001"
        value: "\n\026aspp0/BatchNorm/beta:0\022\033aspp0/BatchNorm/beta/Assign\032\033aspp0/BatchNorm/beta/read:02(aspp0/BatchNorm/beta/Initializer/zeros:08\001"
        value: "\n\035aspp0/BatchNorm/moving_mean:0\022\"aspp0/BatchNorm/moving_mean/Assign\032\"aspp0/BatchNorm/moving_mean/read:02/aspp0/BatchNorm/moving_mean/Initializer/zeros:0@\003H\002"
        value: "\n!aspp0/BatchNorm/moving_variance:0\022&aspp0/BatchNorm/moving_variance/Assign\032&aspp0/BatchNorm/moving_variance/read:022aspp0/BatchNorm/moving_variance/Initializer/ones:0@\003H\002"
        value: "\n\033concat_projection/weights:0\022 concat_projection/weights/Assign\032 concat_projection/weights/read:026concat_projection/weights/Initializer/random_uniform:08\001"
        value: "\n#concat_projection/BatchNorm/gamma:0\022(concat_projection/BatchNorm/gamma/Assign\032(concat_projection/BatchNorm/gamma/read:024concat_projection/BatchNorm/gamma/Initializer/ones:08\001"
        value: "\n\"concat_projection/BatchNorm/beta:0\022\'concat_projection/BatchNorm/beta/Assign\032\'concat_projection/BatchNorm/beta/read:024concat_projection/BatchNorm/beta/Initializer/zeros:08\001"
        value: "\n)concat_projection/BatchNorm/moving_mean:0\022.concat_projection/BatchNorm/moving_mean/Assign\032.concat_projection/BatchNorm/moving_mean/read:02;concat_projection/BatchNorm/moving_mean/Initializer/zeros:0@\003H\002"
        value: "\n-concat_projection/BatchNorm/moving_variance:0\0222concat_projection/BatchNorm/moving_variance/Assign\0322concat_projection/BatchNorm/moving_variance/read:02>concat_projection/BatchNorm/moving_variance/Initializer/ones:0@\003H\002"
        value: "\n\031logits/semantic/weights:0\022\036logits/semantic/weights/Assign\032\036logits/semantic/weights/read:026logits/semantic/weights/Initializer/truncated_normal:08\001"
        value: "\n\030logits/semantic/biases:0\022\035logits/semantic/biases/Assign\032\035logits/semantic/biases/read:02*logits/semantic/biases/Initializer/zeros:08\001"
      }
    }
  }
  signature_def {
    key: "predict_images"
    value {
      inputs {
        key: "height"
        value {
          name: "height:0"
          dtype: DT_INT32
          tensor_shape {
            dim {
              size: 8
            }
          }
        }
      }
      inputs {
        key: "images"
        value {
          name: "x:0"
          dtype: DT_UINT8
          tensor_shape {
            dim {
              size: -1
            }
          }
        }
      }
      inputs {
        key: "imgnum"
        value {
          name: "imgnum:0"
          dtype: DT_INT32
          tensor_shape {
          }
        }
      }
      inputs {
        key: "width"
        value {
          name: "width:0"
          dtype: DT_INT32
          tensor_shape {
            dim {
              size: 8
            }
          }
        }
      }
      outputs {
        key: "segmentation_map"
        value {
          name: "probmap:0"
          dtype: DT_UINT8
          tensor_shape {
            dim {
              size: 8
            }
            dim {
              size: 513
            }
            dim {
              size: 513
            }
            dim {
              size: 1
            }
          }
        }
      }
      method_name: "tensorflow/serving/predict"
    }
  }
}
